models/model_mps_20241122_161528.pth (torch, 642568 bytes, 40 tensors)

conv1.weight f4 [8, 1, 3, 3]
0	0x3e19915d	0.14996858
1	0xbe392d22	-0.18083623
2	0xbe9be3c8	-0.3044722
3	0x3e06f8f7	0.1318091
4	0x3eb046b3	0.3442894
5	0x3bf6b545	0.007528933
6	0xbe118da5	-0.1421419
7	0x3d6b03da	0.05737672
8	0x3e2ea7b6	0.17056164
9	0x3e5d5270	0.21613479
10	0x3df792c0	0.12088537
11	0x3e8ff42e	0.28115982
12	0xbdd8c85c	-0.105850905
13	0x3dcb613c	0.09930655
14	0x3df91410	0.1216203
15	0xbdf14ee6	-0.11782627
16	0xbeb5ec4c	-0.35531843
17	0xbe76fb37	-0.24119268
18	0xbebb7ac1	-0.3661709
19	0xbe0148dc	-0.1262545
20	0x3e673911	0.22580363
21	0x3d9a0872	0.07521142
22	0x3ecffd54	0.40622962
23	0x3d7a3488	0.061085254
24	0x3e62ddc8	0.22154915
25	0xbc96b73d	-0.018397922
26	0xbebde707	-0.37090322
27	0xbf06f877	-0.5272288
28	0xbe4f253d	-0.20229049
29	0xbe06bbc8	-0.1315757
30	0xbd0e4acc	-0.0347393
31	0xbe25a473	-0.16176014
32	0x3e1bc861	0.15213157
33	0x3df69f0d	0.12042055
34	0x3e3d80a2	0.18506101
35	0x3e64474f	0.22292827
36	0x3e482e45	0.195489
37	0x3e5e6643	0.21718697
38	0x3c81c310	0.015840083
39	0xbe5cd730	-0.21566463
40	0xbd6e4e50	-0.058180153
41	0xbe8acdd4	-0.2711016
42	0xbe28db03	-0.16489796
43	0xbdb70179	-0.08935828
44	0xbe1969b5	-0.1498173
45	0xbc20a98d	-0.009806049
46	0x3e1a1fb6	0.1505116
47	0x3ddd8c79	0.10817809
48	0xbe28bb21	-0.16477634
49	0xbb9baec6	-0.004751059
50	0x3e419b9d	0.18907018
51	0xbe762b14	-0.2403987
52	0xbe2e4d75	-0.17021735
53	0xbe98cc81	-0.29843524
54	0x3e423938	0.1896714
55	0x3d859277	0.065220766
56	0xbeb34a95	-0.3501784
57	0x3de3b63d	0.111187436
58	0x3e1950a5	0.1497217
59	0xbea5e0fe	-0.32398218
60	0x3e7c05aa	0.24611536
61	0xbdd0dfe8	-0.10198957
62	0xbdc94e3f	-0.098293774
63	0xbe8771c1	-0.26453975
64	0x3ea3a5d2	0.31962448
65	0x3d662720	0.056189656
66	0xbe2ff821	-0.17184497
67	0x3e7b88da	0.24563923
68	0xbd042f16	-0.032271467
69	0x3e4f9d05	0.20274742
70	0xbda67396	-0.08127515
71	0x3e074458	0.13209665

conv1.bias f4 [8]
0	0x3e55e801	0.20889284
1	0xbdc034a5	-0.09385041
2	0xbea50940	-0.3223362
3	0xbdd9c1d3	-0.10632672
4	0x3e98cf4a	0.2984565
5	0x3e899b3f	0.26876256
6	0xbe3427b5	-0.17593272
7	0xbe91dea7	-0.28490183

bn1.weight f4 [8]
0	0x3f4bff77	0.79686683
1	0x3f5f3f10	0.872056
2	0x3f39814e	0.7246293
3	0x3f66014c	0.8984573
4	0x3f8451fe	1.0337522
5	0x3f9369ea	1.1516697
6	0x3f6cfe6b	0.9257571
7	0x3f27ad1d	0.65498525

bn1.bias f4 [8]
0	0xbf89d5e2	-1.0768397
1	0xbec97950	-0.39350367
2	0xbf70f0f2	-0.94117653
3	0xbecf8b0a	-0.40535766
4	0xbee2197d	-0.4416007
5	0xbef08dfd	-0.46983328
6	0xbf10f52f	-0.5662412
7	0xbf004c5b	-0.5011651

bn1.running_mean f4 [8]
0	0x3e55e52e	0.20888206
1	0xbdc01458	-0.0937888
2	0xbea996c2	-0.33122832
3	0xbdecba39	-0.11558957
4	0x3e939922	0.2882777
5	0x3e81fcaf	0.25388095
6	0xbe38e716	-0.18056902
7	0xbe8e8505	-0.2783586

bn1.running_var f4 [8]
0	0x3e0879c9	0.13327707
1	0x3e9d74cd	0.30753174
2	0x3e4c8876	0.1997393
3	0x3f1188b0	0.56849194
4	0x3eb2f86c	0.34955156
5	0x3e8f9208	0.280411
6	0x3ea8be08	0.32957482
7	0x3e4e5fbc	0.20153707

conv2.weight f4 [16, 8, 3, 3]
0	0xbe1c2ec5	-0.15252216
1	0xbd885e29	-0.066585846
2	0xbdada79a	-0.08479233
3	0xbd8b82c2	-0.068120494
4	0xbe255897	-0.16147076
5	0xbd5a92f3	-0.053362798
6	0x3e617351	0.22016646
7	0x3e7680a6	0.24072513
8	0x3ddf6943	0.10908749
9	0xbd0ee416	-0.03488549
10	0x3c0f2ad0	0.008738235
11	0xbd7d9dea	-0.061918177
12	0x3cf2c746	0.029636037
13	0x3d27fc34	0.041012004
14	0xbd58d8ed	-0.05294125
15	0x3d8d9be6	0.06914501
16	0x3cc3b5e4	0.023890443
17	0xbc8f470d	-0.017489934
18	0x3dc13e7d	0.09435747
19	0xbd0a7a2e	-0.033807926
20	0xbd3715ef	-0.044698652
21	0x3db0a38c	0.08624944
22	0xbd777d5a	-0.06042228
23	0xbdfff2b0	-0.12497461
24	0x3de2ed20	0.11080384
25	0x3e4de472	0.20106676
26	0xbd66004f	-0.056152638
27	0xbc9ba080	-0.01899743
28	0xbdb060dd	-0.08612225
29	0xbe56932b	-0.20954578
30	0x3e04d0dc	0.12970299
31	0x3da9d468	0.082924664
32	0xbe197fc3	-0.14990143
33	0x3d3d1dfa	0.046171166
34	0x3e6847ba	0.22683612
35	0x3dec1d86	0.11529069
36	0x3e0496f7	0.12948214
37	0x3bb6633e	0.00556603
38	0x3d130a83	0.035898697
39	0x3dd1b3cc	0.10239372
40	0x3d0ebc8c	0.03484778
41	0x3c478bf8	0.012179367
42	0xbd44574c	-0.047934815
43	0xbdcf81b2	-0.10132159
44	0x3e037e93	0.12841253
45	0x3d018cd4	0.031628445
46	0x3d64d295	0.05586489
47	0x3bd53edc	0.0065077376
48	0x3d7f4a2b	0.06232659
49	0x3d855e35	0.06512109
50	0xbbfe05b7	-0.007752146
51	0xbda3ee4f	-0.08004438
52	0xbcd4e382	-0.02598739
53	0x3dd97177	0.10617345
54	0xbcb417da	-0.02198403
55	0x3c74a9f3	0.014933097
56	0xbc408c05	-0.011752133
57	0xbd033e4e	-0.03204184
58	0xbdaf81e3	-0.08569696
59	0xbdb1089b	-0.086442195
60	0xbc9f9055	-0.019478003
61	0xbc27cdba	-0.01024192
62	0x3b90c2fb	0.0044177747
63	0xbd5bbe94	-0.053648546
64	0xbdc274b6	-0.09494917
65	0xbe02aa2e	-0.12760231
66	0xbdf313ff	-0.11869048
67	0xbe171a0e	-0.14756033
68	0xbe195d4d	-0.14976998
69	0xbc712471	-0.014718161
70	0x3c8c6336	0.017137151
71	0xbc82a00a	-0.015945453
72	0xbd15c560	-0.036565185
73	0x3d66876c	0.056281492
74	0x3ded8af6	0.1159877
75	0x3cfaa52b	0.030596336
76	0x3e511a79	0.20420255
77	0x3eb9826d	0.3623232
78	0xbda2df67	-0.07952767
79	0x3e0e6806	0.1390687
80	0xbd0a7609	-0.033803973
81	0xbb1ac116	-0.0023613623
82	0xbcf3d553	-0.029764807
83	0x3a3205fc	0.0006791053
84	0x3cc74737	0.02432595
85	0xbdaf53b6	-0.085608885
86	0xbd533ab0	-0.05156964
87	0xbc8e7721	-0.01739079
88	0xbdb1c37d	-0.086798646
89	0x3c904ac0	0.017613769
90	0x3dc45dd4	0.09588209
91	0x3c2eb397	0.010662935
92	0x3d92890a	0.071550444
93	0xbdb7c111	-0.08972371
94	0xbe5cb56e	-0.21553585
95	0x3c8e13fd	0.017343516
96	0xbe36adb9	-0.17839707
97	0xbde153b6	-0.11002295
98	0xbc0448e7	-0.008074022
99	0x3dc76cf4	0.09737578
100	0xbd3d65e6	-0.046239756
101	0xbd574d6e	-0.052564077
102	0xbd0e05f0	-0.03467363
103	0xbe0eeb5f	-0.13956974
104	0xbc0f9eb2	-0.008765863
105	0xbdf8cdf2	-0.12148656
106	0xbdcd8126	-0.10034399
107	0xbe0d7191	-0.13812853
108	0xbdaaecc8	-0.08345944
109	0xbdffc578	-0.12488836
110	0xbd21589c	-0.039391145
111	0xbdbee463	-0.09320905
112	0xbe62b897	-0.22140728
113	0xbe61fc5e	-0.22068927
114	0xbd3603a4	-0.044437066
115	0xbe00bf9a	-0.1257309
116	0xbd5679f6	-0.052362405
117	0x3cc4e503	0.024034983
118	0xbca8f719	-0.020625638
119	0xbd83542c	-0.06412539
120	0x3c5cc395	0.013474365
121	0x3dc4ce9f	0.09609722
122	0x3d21ef42	0.039534815
123	0xbc9e0986	-0.01929165
124	0x3d3b1f0e	0.045683913
125	0x3c97d397	0.018533511
126	0x3c7508f0	0.014955744
127	0x3da4b621	0.08042551
128	0x3d282df4	0.04105945
129	0xba2d87d7	-0.0006619668
130	0x3d5341cf	0.05157643
131	0x3db40e39	0.08791775
132	0xbe0b6b18	-0.13615072
133	0xbd2f45a9	-0.042791042
134	0xbda246c5	-0.079236545
135	0x3d0092e6	0.031390093
136	0x3c10c20d	0.008835328
137	0xbcda7eb5	-0.026671747
138	0x3d1d2747	0.038367536
139	0x3de81ddd	0.11333821
140	0x3c676f15	0.014125605
141	0x3a796e98	0.0009515076
142	0x3dcbd224	0.099521905
143	0x3b91ff76	0.004455502
144	0xbd2d3982	-0.04229117
145	0xbcb48982	-0.022038225
146	0xbe1c08fa	-0.152378
147	0xbdf115e9	-0.11771757
148	0xbc9c0fd0	-0.019050509
149	0x3e61b5e9	0.2204205
150	0xbcdb7bf0	-0.026792496
151	0x3d07bb4f	0.033137616
152	0x3e00cb11	0.12577464
153	0x3deb8716	0.11500375
154	0xbc36c2b2	-0.011154817
155	0x3c1877a3	0.009305867
156	0x3e204085	0.15649612
157	0x3cd71d8e	0.02625921
158	0xbda8d04e	-0.08242856
159	0x3cd1d8e3	0.025616115
160	0x3d4e1aca	0.050318517
161	0xbc4f927d	-0.012669203
162	0x3e053095	0.13006814
163	0x3e2ffa8d	0.17185421
164	0x3e1f10ad	0.15533705
165	0x3d281c11	0.04104239
166	0xbcf43cd1	-0.029814156
167	0xbc3062b7	-0.010765723
168	0xbd8d14e0	-0.06888747
169	0x3ca4a6a0	0.020098984
170	0xbd86494f	-0.06556951
171	0x3e474456	0.19459662
172	0xbd5df019	-0.054184053
173	0x3c9b1b70	0.018933982
174	0xbe07ece9	-0.13273968
175	0xbe0577fb	-0.1303405
176	0xbd976106	-0.073915526
177	0xbe162bb0	-0.14665103
178	0x3c25eae2	0.010126801
179	0xbdb14096	-0.08654897
180	0xbbd3c822	-0.0064630667
181	0xbd0a0607	-0.033697154
182	0xbd18271c	-0.037146673
183	0x3e369849	0.1783153
184	0xbe4d06da	-0.20022145
185	0xbe9b1dd6	-0.302962
186	0x3d2a785d	0.041618694
187	0xbe0315b1	-0.12801243
188	0xbe5be719	-0.21474876
189	0xbe0391a4	-0.12848526
190	0xbdea984b	-0.11454829
191	0xbddd6d6e	-0.10811888
192	0xbe2a431f	-0.16627167
193	0x3db7e916	0.089800045
194	0xbc38c81b	-0.011278178
195	0x3dfaaa1e	0.122394785
196	0x3da64477	0.081185274
197	0x3d7cf790	0.06175953
198	0xbd36c7f5	-0.044624288
199	0xbd35f17c	-0.04441975
200	0x3d9be144	0.076113254
201	0xbccd5ca9	-0.025068598
202	0xbd906374	-0.07050219
203	0x3d298290	0.04138428
204	0xbbe76bcb	-0.0070624105
205	0xbd92ce7b	-0.07168289
206	0x3c8fd1db	0.017556122
207	0x3e099841	0.13436987
208	0x3cf43068	0.029808238
209	0x3d075d2d	0.033047844
210	0xbd507ca6	-0.050900124
211	0xbd51e47f	-0.0512433
212	0x3d598591	0.053105894
213	0xbe1749f2	-0.14774302
214	0x3b43a6b6	0.0029854006
215	0x3d2b2801	0.041786198
216	0xbce192e4	-0.027535863
217	0xbd988814	-0.0744783
218	0xbdfd9872	-0.12382592
219	0x3dd2df34	0.10296479
220	0x3e43a5c0	0.19106197
221	0x3c856ccf	0.016287236
222	0xbb184110	-0.002323214
223	0xbb012891	-0.0019708017
224	0x3d89de1f	0.06731819
225	0xbe43406e	-0.19067547
226	0xbe384dd8	-0.17998445
227	0xbe7545d6	-0.23952422
228	0x3d0fa1b5	0.035066325
229	0x3dac3348	0.084082186
230	0x3cc14ab7	0.023595197
231	0x3d2e44ac	0.04254596
232	0x3e32cd82	0.17461208
233	0x3e2ba34d	0.16761513
234	0x3d728347	0.059207227
235	0xbd1b61b2	-0.037934966
236	0xbc30d5b3	-0.010793137
237	0x3b85465b	0.004067225
238	0xbc60274e	-0.013681246
239	0xbcb46a0e	-0.022023227
240	0xbd7cf59b	-0.061757665
241	0xbe023d89	-0.12718786
242	0xbd769a40	-0.060205698
243	0xbb781522	-0.0037854393
244	0x3d8cd524	0.06876591
245	0x3ddf35b5	0.10898916
246	0x3d162d9d	0.036664594
247	0x3cf5d9fa	0.030011166
248	0x3db1bb03	0.08678248
249	0xbe06b070	-0.13153243
250	0xbe2a399c	-0.16623539
251	0xbd961012	-0.07327284
252	0x3d5dc23a	0.054140307
253	0x3dd2101f	0.10256981
254	0x3c32d54a	0.01091511
255	0x3de5b70b	0.11216553

conv2.bias f4 [16]
0	0x3dacb507	0.08432966
1	0xbd4d50c2	-0.050125845
2	0x3c9c11bc	0.019051425
3	0xbc3b5dc5	-0.011435931
4	0xbdb84cb2	-0.089990035
5	0x3d2f466d	0.042791773
6	0x3d0ab9c5	0.03386857
7	0xbda82437	-0.082100324
8	0xbdc8c09a	-0.09802361
9	0xbd8987cf	-0.067153566
10	0x3ce2ed09	0.027700918
11	0xbd0756c3	-0.033041727
12	0xbd9cd9eb	-0.07658752
13	0x3ced9a41	0.029004218
14	0x3d1b81c2	0.037965544
15	0xbd9fcf5e	-0.07803224

bn2.weight f4 [16]
0	0x3f93ca96	1.1546199
1	0x3f858a3b	1.043281
2	0x3f8a064c	1.0783172
3	0x3f933f3a	1.150367
4	0x3f8a2ff6	1.0795887
5	0x3f9857bb	1.1901773
6	0x3fa0486b	1.25221
7	0x3f906a66	1.128247
8	0x3fa2cfea	1.27197
9	0x3f97089d	1.1799504
10	0x3f9898d2	1.1921637
11	0x3fa78015	1.3085963
12	0x3fa40763	1.2814754
13	0x3f9e8c14	1.2386498
14	0x3fb5ec58	1.4212751
15	0x3f96e03b	1.178718

bn2.bias f4 [16]
0	0xbe6a1e2c	-0.22863072
1	0xbe97d6a6	-0.2965595
2	0xbebfe034	-0.3747574
3	0xbe27618c	-0.16345805
4	0xbe9ef596	-0.31046742
5	0xbe503d19	-0.20335807
6	0xbec7f1c8	-0.39051652
7	0xbe7262ce	-0.23670503
8	0xbea3867f	-0.3193855
9	0xbe96d03a	-0.2945574
10	0xbe7509ec	-0.23929566
11	0xbd8e8a22	-0.069599405
12	0xbe77dfe0	-0.24206495
13	0xbea184f6	-0.31546754
14	0xbea200a9	-0.3164113
15	0xbe347920	-0.1762433

bn2.running_mean f4 [16]
0	0xbc9640ab	-0.018341383
1	0xbe39b43c	-0.1813516
2	0xbda0c54c	-0.078501314
3	0xbdf50b66	-0.11965065
4	0xbe36ff58	-0.17870843
5	0xbd83c97a	-0.06434913
6	0xbe7661e8	-0.24060786
7	0xbe67bb49	-0.22630037
8	0xbebdb2b9	-0.37050417
9	0xbe4be14c	-0.19910163
10	0xbd261c13	-0.040554117
11	0xbf047589	-0.51741844
12	0xbe122d2e	-0.14275047
13	0xbe225f91	-0.15856768
14	0xbe3f378d	-0.18673535
15	0xbec05a15	-0.37568727

bn2.running_var f4 [16]
0	0x3ed2b1b8	0.41151214
1	0x3ea00753	0.31255588
2	0x3e91fbf2	0.28512532
3	0x3f49b15c	0.78786254
4	0x3e9fd9d2	0.3122087
5	0x3f03a69c	0.514261
6	0x3f5010cf	0.8127565
7	0x3f039ce8	0.51411295
8	0x3f0e724f	0.5564317
9	0x3ed00c0d	0.40634194
10	0x3f155623	0.5833456
11	0x3f60ea08	0.87857103
12	0x3ed7ad90	0.42124605
13	0x3f077e86	0.52927434
14	0x3f0b092e	0.5431088
15	0x3f1d2e24	0.6139853

fc1.weight f4 [64, 784]
0	0x3cead002	0.028663639
1	0x3c9fc951	0.019505175
2	0xbc053e79	-0.00813257
3	0x3c15da90	0.009146348
4	0x3b3f240b	0.002916577
5	0xbd9ec6b1	-0.07752741
6	0xbd9e2666	-0.07722168
7	0x3e2c10cb	0.16803281
8	0x3daf66cd	0.085645296
9	0x3de2ef86	0.11080842
10	0x3d56f8ae	0.052483253
11	0x3d28b4f3	0.04118819
12	0x3cbd3f01	0.023101332
13	0x3d5b97bd	0.053611506
14	0x3e215c6d	0.15757914
15	0x3daefa13	0.085437916
16	0x3cf127f7	0.029438002
17	0xbe25f818	-0.16207922
18	0xbdfb37cb	-0.12266501
19	0xbdb5ef22	-0.088835016
20	0xbd8abe64	-0.067745954
21	0x3d8881c8	0.06665379
22	0x3c82da2f	0.015973179
23	0xbdceac0a	-0.100914076
24	0xbd7c3cfd	-0.0615816
25	0x3db51882	0.08842565
26	0x3d15bba9	0.03655592
27	0xbc8cb15a	-0.017174412
28	0x3d40a6fa	0.04703424
29	0xbe31cfe6	-0.17364463
30	0xbd059743	-0.032614958
31	0x3b1809d9	0.002319923
32	0x3d447430	0.047962368
33	0xbd5350c5	-0.0515907
34	0xbddf7fd2	-0.10913052
35	0xbb56c07e	-0.0032768543
36	0xbe010e85	-0.12603195
37	0xbc433ef6	-0.0119168665
38	0x3b80dfb7	0.003932919
39	0xbce3b0a5	-0.027794192
40	0xbdda57f6	-0.106613085
41	0xbcc69f7e	-0.024245974
42	0x3d3c9b83	0.046046745
43	0x3b4be549	0.0031112006
44	0xbdb9f09e	-0.09079097
45	0xbcef8fa4	-0.029243298
46	0x3d9be83f	0.07612657
47	0x3db9cb2b	0.09071954
48	0xbd506d07	-0.050885227
49	0xbb80f7be	-0.003935783
50	0xbd888c97	-0.066674404
51	0xbdc97a35	-0.09837762
52	0x3cc3b659	0.023890661
53	0xbdba46a0	-0.09095502
54	0xbd6216fa	-0.055197693
55	0x3b8adb51	0.0042375703
56	0xbbeba267	-0.0071909907
57	0x3d11542e	0.03548067
58	0x3c381eb5	0.01123779
59	0x3d3cefed	0.04612725
60	0x3cd1c284	0.025605448
61	0x3d83e627	0.064403825
62	0xbc92a50c	-0.017900966
63	0x3de6d257	0.11270588
64	0x3cb9f599	0.022700118
65	0xbc36bf55	-0.011154016
66	0x3d2b3204	0.041795745
67	0x3c21302d	0.009838146
68	0x3cac50f6	0.021034699
69	0x3b099f9b	0.0020999673
70	0xbd8c3581	-0.068461426
71	0xbb8db16d	-0.0043241293
72	0xbd065798	-0.03279838
73	0x3cc9bc9f	0.024626074
74	0xbd0a5d2a	-0.033780254
75	0x3d1c59af	0.038171466
76	0x3dc1abf3	0.09456625
77	0x3d86488c	0.06556806
78	0xbd463694	-0.048391894
79	0xbc2fa1fb	-0.0107197715
80	0x3c03f76d	0.008054596
81	0xbc06196e	-0.008184774
82	0xbce2a901	-0.027668478
83	0xbd7c8e08	-0.06165889
84	0xbdd0a050	-0.10186827
85	0x3ce59836	0.028026681
86	0x3d45ddec	0.048307344
87	0xbbd0e448	-0.0063748695
88	0x3d2d2eb0	0.042280853
89	0xbda03aab	-0.0782369
90	0xbe022912	-0.1271098
91	0xbce3627f	-0.027756928
92	0x3cf472dc	0.029839925
93	0xbccf2fb9	-0.02529131
94	0x3cd9e12c	0.026596628
95	0x3d50edb0	0.051007926
96	0xbd408d1e	-0.04700958
97	0xbdad3b2a	-0.0845855
98	0xbd78ba80	-0.060724735
99	0xbdc30bc6	-0.0952373
100	0x3c1001dd	0.008789507
101	0xbc2a5d31	-0.010398195
102	0xbd5a3905	-0.053277034
103	0xbd2d18dd	-0.04226004
104	0x3d198495	0.037479956
105	0x3dbb91b5	0.09158651
106	0xbd33dd4c	-0.043912217
107	0xbd092dc9	-0.03349093
108	0x3dae7e7b	0.08520218
109	0xbcc40377	-0.023927433
110	0xbdb9ceb3	-0.09072628
111	0xbdd77ff7	-0.10522454
112	0x3c50dc90	0.012747899
113	0xbd022ffc	-0.031784043
114	0xbd1dbab2	-0.038508125
115	0x3da3f2b4	0.08005276
116	0x3d16f810	0.036857665
117	0x3bd2ce92	0.0064333165
118	0x3d5e7739	0.05431292
119	0xbd05247f	-0.03250551
120	0x3cb48dad	0.022040213
121	0x3d2dd290	0.042437136
122	0x3d1f9393	0.038959097
123	0x3d338a82	0.043833263
124	0x3d904a4c	0.07045421
125	0xbcddbcb7	-0.027067525
126	0xbc2c63d0	-0.010521844
127	0x3bce48c1	0.006295294
128	0x3d61cadc	0.055125102
129	0xbcbfbb11	-0.02340463
130	0xbd3e880e	-0.04651647
131	0x3d0b379b	0.033988576
132	0xbd8e6ca5	-0.06954316
133	0x3a100240	0.00054934993
134	0x3da1e20d	0.07904444
135	0xbda3679f	-0.079787485
136	0xbd8a9fc3	-0.067687534
137	0xbcf3ff0b	-0.0297847
138	0x3d97f70f	0.074201696
139	0x3d61fd09	0.055172954
140	0xbd5ad76f	-0.05342811
141	0xbccea784	-0.025226362
142	0x3d04335e	0.03227555
143	0x3da424e2	0.08014847
144	0x3d8b18b6	0.067918226
145	0xbce7299f	-0.028218089
146	0xbd3d1bdb	-0.046169143
147	0x3cbed61a	0.023295451
148	0xbc3e8bbc	-0.011629995
149	0x3d851fb8	0.065001905
150	0x3d815995	0.063159145
151	0x3d920715	0.07130257
152	0x3c0478de	0.008085458
153	0xbdb9be33	-0.09069481
154	0x3d253d04	0.040341392
155	0x3df7804f	0.1208502
156	0x3defbd5a	0.11706038
157	0x3c07ece0	0.0082962215
158	0x3c0500ed	0.0081178965
159	0xbda5edc6	-0.08101992
160	0xbd760813	-0.060066294
161	0x3e4606c3	0.19338517
162	0x3df5eb73	0.12007799
163	0x3d4f3003	0.050582897
164	0x3d737a85	0.059443016
165	0xbb424a56	-0.0029646358
166	0xbdf9aa9b	-0.121907435
167	0xbd1cbd24	-0.038266316
168	0xbd4bec3c	-0.049785838
169	0xbcfd1f38	-0.030898675
170	0xbd8aed73	-0.06783571
171	0xbda0cb73	-0.07851305
172	0x3c383c7d	0.01124489
173	0x3b998d01	0.0046859984
174	0xbdca58e7	-0.09880238
175	0xbd02b7cb	-0.03191356
176	0xbd300bc2	-0.042979963
177	0xbac452cf	-0.0014978292
178	0x3d034106	0.032044433
179	0x3d019c5e	0.031643264
180	0xbd4149ef	-0.04718965
181	0xbe06751c	-0.13130611
182	0x3d37b664	0.044851676
183	0xbc29ff9c	-0.010375883
184	0xbd4f13aa	-0.050555862
185	0x3d8862e2	0.066594854
186	0xbd50c814	-0.05097206
187	0xbdb80c5e	-0.08986734
188	0xbe045fcd	-0.1292717
189	0x3c9aa469	0.018877225
190	0x3dcf4ba3	0.101218484
191	0x3d530ea0	0.05152762
192	0x3d5ebb93	0.054378103
193	0x3d96ad30	0.07357252
194	0xbde47d38	-0.11156696
195	0xbd918fa0	-0.071074724
196	0x3d38205a	0.044952728
197	0x3c8ac7e6	0.016941022
198	0xbdc04a0d	-0.09389124
199	0x3dc51c0b	0.096244894
200	0xbcd81f30	-0.026382059
201	0xbcae0cce	-0.02124634
202	0xbcfc6031	-0.030807586
203	0x3dd2818a	0.10278614
204	0xbbb9b40c	-0.005667215
205	0xbaafba87	-0.001340703
206	0x3d437dea	0.047727503
207	0xbcbebda7	-0.023283793
208	0x3de16c98	0.11007041
209	0x3d0af2fa	0.033923127
210	0x3df50790	0.11964333
211	0x3dbe7f0d	0.09301577
212	0x3d03d422	0.032184727
213	0x3cfe5032	0.0310441
214	0x3d52836a	0.051394857
215	0x3dc1d54d	0.09464512
216	0xbdb417e3	-0.087936185
217	0x3cfb0ae8	0.030644849
218	0xbdbcd9ac	-0.09221205
219	0x3d17c15f	0.037049647
220	0x39a5b155	0.00031603375
221	0x3da18786	0.07887177
222	0x3c90c1da	0.01767056
223	0x3a298634	0.0006466836
224	0x3cf7e378	0.030259833
225	0x3d4b7251	0.049669567
226	0x3d2d93e7	0.04237738
227	0x3c9ed3f0	0.019388169
228	0x3d524835	0.051338393
229	0x3d1476df	0.036246177
230	0x3c4885cf	0.012238934
231	0xbc8384e9	-0.016054587
232	0x3d01376d	0.031547
233	0xbc493d20	-0.01228264
234	0x3d419163	0.047257792
235	0xbd4ad3c7	-0.049518373
236	0xbe1dae0e	-0.15398428
237	0xbe99360d	-0.2992405
238	0xbcac5410	-0.021036178
239	0x3e0f697d	0.14005084
240	0xbcc80a43	-0.024418956
241	0x3cd3bd5c	0.02584713
242	0xbce8026d	-0.02832147
243	0xbdda7c70	-0.10668266
244	0xbdf7efdd	-0.12106297
245	0x3cf3cc6b	0.02976056
246	0xbc726392	-0.014794247
247	0x3d6ef3d7	0.058338013
248	0xbdc24fd8	-0.09487885
249	0xbd1763a5	-0.036960263
250	0xbe196402	-0.14979556
251	0xbe127721	-0.14303257
252	0x3d9bac59	0.07601232
253	0x3d074b7e	0.03303098
254	0x3d6d8efb	0.057997685
255	0xbc694550	-0.014237717

fc1.bias f4 [64]
0	0xbd4d2c4e	-0.05009108
1	0xbd818495	-0.06324116
2	0xbbcd95b9	-0.006273952
3	0x3bc73060	0.006078765
4	0xbcbf9a23	-0.023388928
5	0x3be8c8be	0.0071040085
6	0x3c826ebb	0.015921941
7	0x3d8729e0	0.06599784
8	0xbc33cadb	-0.0109736575
9	0xbc26a347	-0.010170764
10	0x3d1822e3	0.037142646
11	0x3d9f5d80	0.077815056
12	0x3d044ba5	0.032298703
13	0x3b95c231	0.0045702686
14	0xbd5b5e3e	-0.053556673
15	0xbdc540ce	-0.09631501
16	0xbdd2efd0	-0.10299647
17	0xbc985314	-0.018594302
18	0x3d8dc914	0.06923118
19	0xbc7fc5a7	-0.015611089
20	0x3d5e1cb1	0.05422658
21	0x3c702c0f	0.014658942
22	0x3d5b8177	0.053590264
23	0xbd13f66c	-0.036123678
24	0x3cdf6e28	0.027274206
25	0x3daa4818	0.08314532
26	0xbd469562	-0.048482306
27	0xbd12ec04	-0.035869613
28	0xbc7dfc34	-0.015502024
29	0xbd1cb0fa	-0.038254716
30	0x3d42a80a	0.047523536
31	0x3e066b4d	0.1312687
32	0x3d0d2e13	0.034467768
33	0x3d8cbe36	0.06872217
34	0xbd259e73	-0.040434312
35	0xbc28b574	-0.010297168
36	0x3db9aac4	0.09065774
37	0xbd9e2365	-0.07721595
38	0x3d9f93e1	0.077918775
39	0xbd0168f3	-0.031594228
40	0x3db49dcd	0.088191606
41	0x3d55ba89	0.052179847
42	0x3d6d6b82	0.057963856
43	0x3bf22f52	0.007390895
44	0x3d92bc9f	0.07164883
45	0xbb1ef6c5	-0.0024255973
46	0xbc5f7eb6	-0.01364105
47	0x3de90f30	0.1137985
48	0x3c34fd2e	0.011046691
49	0xbc1e8645	-0.009675567
50	0x3d445bde	0.047939174
51	0xbcf8f883	-0.030391937
52	0xbc8310fe	-0.015999313
53	0x3bba86b5	0.005692328
54	0x3df74e69	0.120755024
55	0xbceff082	-0.029289488
56	0x3d11f46b	0.035633486
57	0xbcdf85ee	-0.027285542
58	0xbcc309bf	-0.023808358
59	0xbd92fe80	-0.07177448
60	0x3d6f3864	0.058403388
61	0x3ca6239f	0.020280657
62	0xbd5113ff	-0.05104446
63	0x3d8ca738	0.06867832

fc2.weight f4 [10, 64]
0	0x3da2b10a	0.07943924
1	0xbe17308d	-0.14764614
2	0xbe4ec96b	-0.20194022
3	0x3df5a908	0.11995131
4	0x3db82d41	0.089930065
5	0x3dbcc1be	0.09216641
6	0x3da0291e	0.078203425
7	0x3d852598	0.06501311
8	0xbd0d932a	-0.034564175
9	0x3ca648c5	0.020298371
10	0x3e1f4ef7	0.15557466
11	0xbe498715	-0.19680436
12	0xbe6d724c	-0.23188132
13	0x3e08673a	0.13320628
14	0x3d38e2c9	0.045138154
15	0x3d058b8d	0.03260379
16	0xbe8c69f1	-0.27424577
17	0x3d9c5eaf	0.07635247
18	0xbd3a6934	-0.045510486
19	0xbd8d5ad8	-0.06902093
20	0x3e0b2326	0.13587627
21	0xbe14c431	-0.14527966
22	0xbe2af122	-0.16693547
23	0xbd596087	-0.05307057
24	0x3cb56ab7	0.022145612
25	0x3c3f97ee	0.011693938
26	0x3e17bb1e	0.14817473
27	0x3da16b7d	0.0788183
28	0xbe82a2e3	-0.25514898
29	0x3d95d363	0.073157094
30	0x3d60335d	0.054736484
31	0x3e51a30f	0.20472358
32	0x3da2d518	0.07950801
33	0x3cc5bd09	0.02413799
34	0x3dc68fa4	0.09695366
35	0x3e0de821	0.13858081
36	0xbe62fb0c	-0.2216608
37	0xbe5de997	-0.21671139
38	0xbe6369dc	-0.22208351
39	0x3c128c63	0.008944604
40	0xbe16fd9d	-0.14745183
41	0x3db6dea3	0.08929183
42	0xbe31866f	-0.17336439
43	0xbd265e80	-0.040617466
44	0x3e223c2c	0.15843266
45	0xbd9f21ce	-0.077701196
46	0x3db98ac2	0.09059669
47	0x3d833e15	0.064083256
48	0x3ce4d4de	0.027933534
49	0x3d7ad8c3	0.061241876
50	0xbda0d4ff	-0.07853126
51	0x3e184385	0.14869507
52	0x3dad7059	0.08468694
53	0xbe353165	-0.17694624
54	0x3e460043	0.19336037
55	0xbe880cb7	-0.265722
56	0xbe2da661	-0.16958
57	0xbaaa90e0	-0.0013013147
58	0xbd8cf640	-0.06882906
59	0xbe1e73f8	-0.15473926
60	0x3d6a3cdd	0.05718695
61	0xbe6af26f	-0.22944044
62	0x3d618b9f	0.055064794
63	0xbe532d9d	-0.20622869
64	0xbe3d371f	-0.18478058
65	0xbe351623	-0.17684226
66	0x3d6edfe3	0.058318984
67	0xbe5c5f97	-0.2152084
68	0x3ceb375e	0.028712925
69	0xbd46ad53	-0.04850514
70	0x3e8569a6	0.26057166
71	0x3d86630b	0.0656186
72	0x3cab5b08	0.02091743
73	0x3dd36ce6	0.10323505
74	0x3d9a2ef4	0.07528487
75	0x3e26a9c1	0.16275693
76	0x3cc2dae4	0.023786016
77	0xbdba8086	-0.09106545
78	0xbe7e5c6f	-0.24839948
79	0xbebc7493	-0.3680769
80	0xbe5d0457	-0.21583687
81	0xbe8d73d1	-0.27627423
82	0x3e511a11	0.204201
83	0xbdaa686c	-0.08320698
84	0xbd9d15cd	-0.07670174
85	0x3dd2f21a	0.103000835
86	0x3daa355f	0.08310961
87	0x3d8870a2	0.06662108
88	0x3e13a1d1	0.14417197
89	0x3e0f8ff3	0.14019756
90	0xbe7f9fa8	-0.24963248
91	0x3b6678af	0.0035167148
92	0x3d9786c4	0.073987514
93	0xbe312c6b	-0.173021
94	0xbe811b40	-0.25216103
95	0x3e2e7a95	0.17038949
96	0xbe825966	-0.2545883
97	0xbc91f715	-0.017818013
98	0xbda9ecbd	-0.08297107
99	0xbea2aacd	-0.31770936
100	0x3db1e0e3	0.08685472
101	0xbe04a12b	-0.12952106
102	0x3e0f7c0e	0.14012167
103	0xbd4195b0	-0.047261894
104	0x3e5c26bb	0.2149915
105	0x3d9be856	0.07612674
106	0x3d53ba41	0.051691297
107	0x3dd2bdb3	0.102900885
108	0x3d462271	0.04837269
109	0xbdc2d584	-0.09513381
110	0x3dbee6ae	0.093213424
111	0x3e107eab	0.1411082
112	0x3de0d6f9	0.10978503
113	0xbd85b94b	-0.065294825
114	0x3d9212bd	0.0713248
115	0x3d6a303c	0.057174906
116	0xbdcac57f	-0.09900951
117	0x3d8a50f7	0.06753724
118	0x3e52acd0	0.20573735
119	0xbe15a5a4	-0.14613968
120	0xbc8c2319	-0.01710658
121	0xbd88e8bf	-0.06685018
122	0x3b9f9422	0.0048699537
123	0xbeba2384	-0.3635522
124	0x3d568c69	0.05238
125	0x3de7171b	0.11283704
126	0xbdc13c5b	-0.0943534
127	0x3d81c2a6	0.06335954
128	0xbc61b87c	-0.013776895
129	0x3df33229	0.11874802
130	0x3dc5fc5d	0.09667275
131	0x3dc6b2e7	0.09702092
132	0xbdccc01d	-0.0999758
133	0xbda32efd	-0.07967947
134	0xbdad7ca8	-0.08471042
135	0x3e015564	0.1263023
136	0x3d7ca428	0.06167999
137	0x3d29ae30	0.041425884
138	0x3c074315	0.00825574
139	0xbe7c0403	-0.24610905
140	0x3d6a3e04	0.05718805
141	0xbe480645	-0.19533642
142	0x3d4add82	0.049527653
143	0xbdd8304d	-0.10556088
144	0xbe0f557f	-0.13997458
145	0xbb88d411	-0.004175671
146	0x3e7414e7	0.23836099
147	0x3d7da851	0.061928097
148	0xbe4412b9	-0.19147767
149	0xbe70687f	-0.23477362
150	0xbe495c95	-0.19664223
151	0xbdac90bf	-0.084260456
152	0xbc65407a	-0.013992423
153	0x3d989cf9	0.07451815
154	0xbe1b63bd	-0.15174766
155	0x3d695f31	0.056975547
156	0xbe77142c	-0.24128789
157	0x3df80933	0.121111296
158	0x3d693421	0.05693448
159	0x3c684488	0.014176495
160	0xbe318aca	-0.173381
161	0xbe17ef11	-0.1483729
162	0x3ddf1900	0.1089344
163	0x3d8e6cdd	0.06954358
164	0xbe238c41	-0.15971471
165	0x3e09fdfb	0.13475792
166	0xbe7e996e	-0.24863216
167	0x3c334e6e	0.010943992
168	0x3e3567ea	0.17715421
169	0xbe8a585d	-0.2702054
170	0x3d8b5650	0.06803572
171	0xbca6bdde	-0.020354208
172	0x3e0327d3	0.1280816
173	0xbd2f14bb	-0.04274438
174	0xbd46555f	-0.04842126
175	0x3d7aa7b9	0.06119511
176	0xbca1300d	-0.019676233
177	0x3dc92a15	0.0982248
178	0xbe70d304	-0.23517996
179	0x3d9eb7dc	0.07749912
180	0x3d219ff4	0.039459184
181	0x3db266cc	0.08711013
182	0xbd34fe08	-0.044187576
183	0xbe44a642	-0.19204047
184	0x3dd821ce	0.10553323
185	0xbddce138	-0.107851446
186	0x3da986eb	0.08277687
187	0x3d6d7db2	0.0579812
188	0x3df646db	0.12025233
189	0x3e212c61	0.15739585
190	0xbaf1bc57	-0.001844297
191	0xbe7ac341	-0.24488546
192	0x3d7616ef	0.060080465
193	0x3cad36fd	0.021144385
194	0x3d582ca3	0.052776944
195	0xbe1e1159	-0.15436305
196	0xbe3544b3	-0.17701988
197	0x3d981908	0.07426649
198	0x3e2ba4dc	0.16762108
199	0x3db6027f	0.08887195
200	0xbcc9fcae	-0.02465662
201	0x3cfa75c2	0.03057373
202	0x3ca9f3dc	0.020746164
203	0x3e40cdca	0.18828502
204	0x3d869dbe	0.06573056
205	0x3dccea0c	0.100055784
206	0x3c7d50dd	0.015461174
207	0x3db6ea89	0.08931453
208	0x3dfb4abb	0.12270113
209	0xbe35a0ee	-0.17737171
210	0xbe145deb	-0.14488952
211	0xbdac1d8a	-0.08404072
212	0xbd4e8ace	-0.050425343
213	0x3dd64236	0.104618475
214	0xbe454afd	-0.19266887
215	0xbd6c2f5c	-0.057662353
216	0xbe4735d0	-0.19454122
217	0x3d441249	0.047869
218	0xbd07a243	-0.03311373
219	0xbd9ad9e5	-0.07561091
220	0xbe13c1fe	-0.14429471
221	0x3da07517	0.07834833
222	0xbe5654be	-0.20930764
223	0xbe8ba3fd	-0.2727355
224	0x3dd40352	0.10352196
225	0xbe3eb869	-0.18625034
226	0x3ddaa1a8	0.10675365
227	0xbe01565b	-0.12630598
228	0xbe667b14	-0.22507888
229	0x3de19685	0.110150374
230	0xbd58f26c	-0.052965567
231	0xbc1d3f77	-0.009597651
232	0x3e3deaf8	0.18546665
233	0xbe31b668	-0.17354739
234	0xbd96199e	-0.07329105
235	0xbd5a9b09	-0.05337051
236	0xbe641378	-0.22273052
237	0x3c3c5245	0.011494224
238	0x3debaffb	0.11508175
239	0xbe86b4fb	-0.26309952
240	0xbcb1e84a	-0.02171721
241	0x3d506728	0.050879627
242	0xbea84c14	-0.32870543
243	0xbc621160	-0.013798088
244	0x3d9b7f63	0.075926565
245	0xbe089a45	-0.13340099
246	0xbe24919c	-0.1607117
247	0x3e0211ea	0.12702146
248	0x3e25e830	0.16201854
249	0x3dbd9783	0.09257414
250	0x3d876f6e	0.066130504
251	0xbdd4d59d	-0.10392306
252	0x3dd7a56d	0.10529599
253	0xbd422c94	-0.047405794
254	0x3c93d976	0.01804803
255	0x3df963c1	0.1217723

fc2.bias f4 [10]
0	0xbd898c3a	-0.06716199
1	0x3dc0044a	0.09375818
2	0xbe16c0c5	-0.14721973
3	0x3d6bd934	0.057580188
4	0x3cbdef78	0.023185477
5	0x3c511782	0.012761952
6	0xbe35520a	-0.17707077
7	0xbdcc05d5	-0.0996205
8	0xbdf35be0	-0.11882758
9	0x3e523bd1	0.2053063

exp_avg f4 [8, 1, 3, 3]
0	0xbcc8d133	-0.024513816
1	0xbc73ae75	-0.014873137
2	0x3aede66f	0.001815034
3	0xbc380035	-0.011230518
4	0xbb882191	-0.004154392
5	0x3c6a516e	0.014301641
6	0xbcb5ee65	-0.022208402
7	0xbb626466	-0.0034544705
8	0x3bd6dee6	0.0065573333
9	0x3b05021e	0.0020295451
10	0xbbae4af2	-0.005318993
11	0xbba5db94	-0.005061576
12	0xbbb9d8a0	-0.0056715757
13	0xbbc4a153	-0.0060006767
14	0xbb0e2fea	-0.002169604
15	0xbc5297c6	-0.012853568
16	0x3ac30740	0.001487948
17	0xbb431634	-0.0029767873
18	0x3b843b4f	0.0040353904
19	0xba26613c	-0.00063468865
20	0xbb4094fe	-0.0029385681
21	0x3bb13a0b	0.0054085306
22	0x3c038398	0.00802698
23	0x3b0cd230	0.0021487586
24	0x3c33209e	0.0109330695
25	0x3c78f618	0.015195392
26	0x3c30cf56	0.01079162
27	0xbaf2a280	-0.0018511564
28	0xbb2fd1ba	-0.0026827888
29	0xba6fb6a0	-0.000914434
30	0xbb428999	-0.0029684065
31	0xbbbadd43	-0.005702646
32	0xbb81f89d	-0.0039664046
33	0xb9bae650	-0.0003564828
34	0xbb73a7ab	-0.0037178795
35	0xbbcb8cf0	-0.0062118694
36	0x3ca728d9	0.02040522
37	0x3c9a379f	0.01882535
38	0x3d0bcac5	0.034128923
39	0x3c7a4bd4	0.015276868
40	0x3c2dbc42	0.010603966
41	0x3c338849	0.010957786
42	0x3b90b47f	0.004416048
43	0x3bd20400	0.0064091682
44	0x3ba122b8	0.004917469
45	0x3d247b3c	0.040156588
46	0x3d23b49a	0.039967157
47	0x3d4c857b	0.049931984
48	0x3c9c438c	0.019075178
49	0x3c351e63	0.011054608
50	0x3c8363b6	0.016038757
51	0x3c88995c	0.01667469
52	0x3c961fa5	0.018325636
53	0x3c5d628e	0.013512267
54	0xbc8198c3	-0.015819913
55	0xbc96573a	-0.01835214
56	0xbc18ade6	-0.009318804
57	0xba634bd5	-0.00086706626
58	0x3b0f1bf5	0.0021836732
59	0xbbaa5dce	-0.0051991707
60	0x3a26cee0	0.0006363224
61	0x3c51661c	0.012780692
62	0x3a1055d0	0.0005505951
63	0x3b525605	0.0032094729
64	0xbb91e3c8	-0.0044522025
65	0xbbb33b14	-0.005469689
66	0xbbddc6fe	-0.0067681065
67	0xbb45931e	-0.0030147503
68	0xbb473deb	-0.0030401896
69	0x3ba2586a	0.0049543874
70	0x3c30cb17	0.010790608
71	0x3c5e9f1f	0.013587742

exp_avg_sq f4 [8, 1, 3, 3]
0	0x3bc2d417	0.0059456932
1	0x3ba48ce6	0.005021679
2	0x3b8223a9	0.003971536
3	0x3b688d40	0.0035484582
4	0x3b23ca16	0.0024992279
5	0x3b9e24ca	0.004826163
6	0x3b83f9db	0.004027588
7	0x3b4b892e	0.0031057107
8	0x3b8d8fae	0.0043201065
9	0x3af75af6	0.0018871713
10	0x3ab3fd0a	0.0013732028
11	0x3ad1da7c	0.0016010548
12	0x3b1cfbb1	0.002395373
13	0x3af5863c	0.0018732022
14	0x3b10102a	0.002198229
15	0x3af18f9a	0.0018429637
16	0x3a7b41c8	0.00095846923
17	0x3ad4b73e	0.0016228927
18	0x3ada6150	0.0016661081
19	0x3b09fc2b	0.0021054845
20	0x3b104e44	0.0022019306
21	0x3aee2875	0.0018170016
22	0x3ac4e1b3	0.0015020877
23	0x3b092413	0.0020926043
24	0x3aec9c26	0.0018051907
25	0x3b086f60	0.0020818338
26	0x3b1d8d4f	0.0024040525
27	0x3a105d1e	0.00055070396
28	0x3a2dd71f	0.0006631482
29	0x3ac6dd8d	0.0015172228
30	0x3a8bf007	0.0010676392
31	0x3aa250d1	0.0012383704
32	0x3b04d1d2	0.0020266664
33	0x3ac3d41b	0.0014940532
34	0x3ac35d6e	0.0014905164
35	0x3ace991c	0.0015762183
36	0x3c3a5cb0	0.0113746375
37	0x3c22b82d	0.009931606
38	0x3c12236b	0.008919577
39	0x3b847083	0.0040417328
40	0x3b36db40	0.002790168
41	0x3b31e5bb	0.0027144987
42	0x3abac5d8	0.0014249636
43	0x3ad1d61d	0.0016009245
44	0x3ac4ee5d	0.0015024651
45	0x3c14fb29	0.009093084
46	0x3c15de06	0.009147173
47	0x3c2790c6	0.010227388
48	0x3b9f06c8	0.0048531033
49	0x3ba324d7	0.004978757
50	0x3c0ac703	0.0084703
51	0x3ad9b02e	0.0016608292
52	0x3b01fec6	0.0019835695
53	0x3b75953c	0.0037472984
54	0x3b408668	0.0029376987
55	0x3b64ce24	0.0034912908
56	0x3b0eae7e	0.0021771486
57	0x3b35ac8a	0.002772125
58	0x3b561a93	0.0032669648
59	0x3aef6322	0.0018263797
60	0x3b63e0ee	0.003477152
61	0x3b82f5ca	0.0039965855
62	0x3b3fdabf	0.002927467
63	0x3a4ec80c	0.00078880857
64	0x39fef8bb	0.00048631974
65	0x39f15857	0.0004603292
66	0x3a3b860a	0.0007153457
67	0x397ab57e	0.00023909469
68	0x39ed3a1e	0.00045247463
69	0x3a5e03ee	0.00084692135
70	0x3a24effc	0.0006291864
71	0x3a5d9d5f	0.0008453931

exp_avg f4 [8]
0	0x328ade39	1.616637e-08
1	0xb200675a	-7.47408e-09
2	0xb189bf10	-4.008946e-09
3	0xb17b779a	-3.6593293e-09
4	0xb085ff18	-9.749526e-10
5	0xb1c42e54	-5.7096177e-09
6	0x310cd652	2.0494508e-09
7	0x30b2ccb5	1.3009386e-09

exp_avg_sq f4 [8]
0	0x266607ba	7.980775e-16
1	0x25a1cf35	2.8069457e-16
2	0x25e339fd	3.9417517e-16
3	0x25319ee1	1.5406133e-16
4	0x2663e771	7.907011e-16
5	0x264ce75e	7.109028e-16
6	0x260d3172	4.8986213e-16
7	0x25491583	1.744126e-16

exp_avg f4 [8]
0	0x3cdd3ac4	0.02700556
1	0x3c1e086a	0.009645561
2	0xbcb5b60e	-0.022181537
3	0xbaf9b9d4	-0.0019052573
4	0x3b2eebd0	0.0026690848
5	0x3c513a8d	0.012770307
6	0xbb0bc212	-0.0021325392
7	0xbcc5b920	-0.024136126

exp_avg_sq f4 [8]
0	0x3b0aee24	0.0021199072
1	0x3a54c44e	0.000811641
2	0x3b3b34eb	0.0028565477
3	0x3a600797	0.0008546053
4	0x3a831cae	0.0010003054
5	0x3a30f1a1	0.00067498727
6	0x3b1045ba	0.0022014217
7	0x3b04a754	0.0020241337

exp_avg f4 [8]
0	0x3c0896cb	0.008336733
1	0x3bb93f5e	0.005653306
2	0x38372480	4.3664593e-05
3	0xbb13ac0c	-0.0022532968
4	0x3b103c9d	0.0022008785
5	0x3bf9767e	0.0076130023
6	0x39b58da4	0.0003462854
7	0xbbc0c542	-0.00588289

exp_avg_sq f4 [8]
0	0x3998f8b7	0.00029177006
1	0x393e67d2	0.00018158488
2	0x39954a18	0.000284747
3	0x39af395c	0.00033421337
4	0x3a435281	0.00074509537
5	0x39dfbb39	0.00042673366
6	0x3a07655a	0.0005164944
7	0x39b12b60	0.00033792388

exp_avg f4 [16, 8, 3, 3]
0	0x3b19cc11	0.002346758
1	0x3b0dc2b0	0.0021630935
2	0x3b213fa5	0.0024604585
3	0x3b78745e	0.0037911157
4	0x3b41d8bd	0.002957865
5	0xbabab8e6	-0.0014245778
6	0x3c82441a	0.015901614
7	0x3c29c2bc	0.01036137
8	0x3abc424a	0.0014363017
9	0x3ba1c2d3	0.004936555
10	0x3bb30fd0	0.0054645315
11	0x3c140185	0.009033565
12	0x38179d80	3.614789e-05
13	0x3b83cb89	0.004022066
14	0x3bc582f5	0.006027574
15	0x3b794ba2	0.0038039465
16	0xba7b3f24	-0.0009584299
17	0xbb5fa7cf	-0.0034127121
18	0x3c0ccd25	0.008593832
19	0x3bcb0da7	0.006196696
20	0x3b503086	0.0031767203
21	0x3baac211	0.005211123
22	0x3ab85f17	0.0014066425
23	0x39ff638f	0.00048711567
24	0xbb8ade03	-0.0042378916
25	0xbb71231f	-0.0036794615
26	0xba2f304f	-0.0006682919
27	0x3a97270d	0.0011532024
28	0x3b1bbe8a	0.0023764693
29	0x3abae300	0.0014258325
30	0xbb29372d	-0.002582024
31	0xbbdd04d2	-0.0067449594
32	0xbb8b142f	-0.0042443494
33	0xb9b5e5fc	-0.00034694362
34	0x3a28cbaa	0.000643904
35	0x3b097f4e	0.002098042
36	0xbb6a000e	-0.00357056
37	0x39a7ace0	0.00031981524
38	0x3b922314	0.004459748
39	0xbb2c6d21	-0.0026310163
40	0x3a90e6f1	0.0011055154
41	0x3b0422a1	0.0020162242
42	0xbaea443d	-0.001787312
43	0xb8f15ff8	-0.00011509651
44	0xbac48bda	-0.0014995292
45	0x3b8e58e8	0.0043440945
46	0x3b852cad	0.0040641637
47	0x3bac21a4	0.0052530337
48	0xb9d01d6a	-0.00039694767
49	0x3b0d0af2	0.0021521416
50	0x3a850f44	0.0010151644
51	0x3be46a7b	0.0069707013
52	0xb915bf80	-0.00014281087
53	0xbb1a9a2a	-0.0023590424
54	0x3b7d6292	0.0038663489
55	0x3b6dc94b	0.003628331
56	0x3b52ed84	0.0032185027
57	0x3c127e80	0.008941293
58	0x3aaa781a	0.0013005764
59	0x3aa00a27	0.0012210057
60	0x3b6e4680	0.003635794
61	0x38cd6020	9.7930664e-05
62	0xbaef5621	-0.0018259921
63	0x3c04a594	0.0080961175
64	0x3a61945b	0.00086051755
65	0x3b6da0cf	0.003625918
66	0x3c31bb2e	0.01084785
67	0x399dfe50	0.0003013485
68	0xb7a123c0	-1.9209343e-05
69	0x3bb5c185	0.005546751
70	0xbad29d72	-0.0016068651
71	0xb974dde8	-0.0002335232
72	0xba63a116	-0.00086833665
73	0xb9974dff	-0.00028859076
74	0x3af5f997	0.00187664
75	0x3ae0062c	0.0017091683
76	0xbb419bdc	-0.0029542362
77	0x3c685d16	0.01418235
78	0x3a759ffc	0.0009369848
79	0xbbbf1adf	-0.0058320607
80	0x3b625f6a	0.0034541734
81	0xbab93e3a	-0.0014132925
82	0x37dafb00	2.6104506e-05
83	0xbad35566	-0.0016123473
84	0xbbae0352	-0.0053104544
85	0x3b9dbfa4	0.004814105
86	0x3b790458	0.0037996974
87	0xbb901f8b	-0.0043982915
88	0x3c09eef6	0.008418789
89	0x3c247de9	0.010039785
90	0xbbc77f9e	-0.006088211
91	0xbc157117	-0.009121201
92	0x3b6a885c	0.0035786843
93	0xba78210f	-0.00094653753
94	0xba47fe3c	-0.00076291314
95	0x3b7fd418	0.003903633
96	0x3835da08	4.335682e-05
97	0x3b3b2801	0.002855778
98	0x3af7420a	0.0018864286
99	0xbaf64a01	-0.0018790365
100	0x3b0bedf8	0.0021351557
101	0x3b3a13e8	0.0028393213
102	0x3abd1819	0.0014426737
103	0x3b37cc30	0.002804529
104	0x3b8a2399	0.0042156694
105	0x3b898560	0.0041968077
106	0x3b84d6b5	0.0040539154
107	0x3a530010	0.00080490205
108	0x38ea3df8	0.00011169532
109	0xba29f191	-0.00064828346
110	0xbb30bf4b	-0.0026969488
111	0x39d4e47c	0.00040606025
112	0x39c5941c	0.00037685118
113	0xba28a226	-0.00064328534
114	0x39da479c	0.00041633553
115	0x3b3eaf38	0.0029096138
116	0x3ad91d03	0.0016564432
117	0xbb1adce7	-0.0023630203
118	0xb99b8d0c	-0.00029668992
119	0x393bb96f	0.00017902789
120	0x3b3b476a	0.0028576502
121	0xbb4be396	-0.0031110994
122	0x3b9f0cdd	0.0048538283
123	0xbaf64459	-0.001878868
124	0x3bb1859e	0.0054175397
125	0x3c318e98	0.01083722
126	0x39f9f0b4	0.0004767232
127	0xbc219cc4	-0.009864036
128	0xbb2d5062	-0.0026445617
129	0xba964281	-0.0011463912
130	0xbc2a2298	-0.010384224
131	0x3a6a74e0	0.00089438073
132	0xbb03c288	-0.0020104963
133	0xbb955f0f	-0.004558451
134	0xbbea3e8e	-0.0071485704
135	0xbbb07604	-0.0053851623
136	0xbbf1a578	-0.0073744617
137	0x3bc6ccc1	0.006066889
138	0xbb457e82	-0.003013522
139	0xbadf6de5	-0.0017046301
140	0x3c2de042	0.010612549
141	0xbb6f66a0	-0.0036529675
142	0xba415c10	-0.0007376084
143	0x3c60af00	0.013713598
144	0xbc08704b	-0.008327554
145	0xba1754d6	-0.00057728344
146	0x3bc4ede8	0.006009806
147	0xbb6041f6	-0.0034219003
148	0x3b7de17e	0.003873914
149	0x3c33f4e6	0.010983681
150	0xba5c1903	-0.0008396061
151	0xbb6e5b9e	-0.0036370526
152	0xbbfa7bae	-0.0076441383
153	0x3b357bec	0.0027692271
154	0xbbe80654	-0.0070808325
155	0xbb843b1e	-0.0040353676
156	0xbb6d66a8	-0.0036224518
157	0xbc04a457	-0.008095822
158	0x3b2686d4	0.0025409954
159	0xbaf5d7b6	-0.0018756303
160	0xbbbf0474	-0.0058293883
161	0x3a6c6de0	0.0009019058
162	0xbb3e9f8d	-0.00290868
163	0xbc539e9f	-0.012916236
164	0xbc337440	-0.010953009
165	0xbb29419a	-0.0025826455
166	0xbb1f89c0	-0.002434358
167	0xbb33f113	-0.0027456924
168	0xbb3d72e7	-0.0028907598
169	0xbb86ef9d	-0.0041179196
170	0xb9fd74e2	-0.00048343005
171	0xbb5abf4e	-0.0033378187
172	0xbbb65a39	-0.0055649546
173	0xba1fcb88	-0.0006095697
174	0xb88bf7c8	-6.674189e-05
175	0xbb99120b	-0.0046713403
176	0xba7c293d	-0.0009619182
177	0xbada84c5	-0.0016671648
178	0xbb19ea90	-0.0023485757
179	0xba8abcde	-0.0010584851
180	0x3b98b7c8	0.0046605803
181	0xba649d01	-0.0008720905
182	0xba4ecb7c	-0.0007888598
183	0xbac07259	-0.0014682516
184	0xbbecffd4	-0.0072326455
185	0x38ac2970	8.2093175e-05
186	0x395db9c0	0.000211454
187	0xbb2b2393	-0.0026113733
188	0x3a2520e8	0.0006299154
189	0x3a75235c	0.0009351277
190	0xbb188271	-0.0023271109
191	0xbaf44e92	-0.0018639138
192	0x3ab58060	0.0013847463
193	0xb848e580	-4.7897454e-05
194	0xba60b59a	-0.00085719826
195	0xbabefda6	-0.0014571443
196	0xbaf6404e	-0.0018787475
197	0x3b22407e	0.0024757679
198	0x3a876db2	0.0010332374
199	0x3b0de81f	0.0021653248
200	0xbba0e6f6	-0.004910345
201	0xbb979966	-0.004626441
202	0xbc00f701	-0.00787139
203	0xbc4287ed	-0.011873228
204	0xb9a0ad18	-0.00030646543
205	0xbb9054c9	-0.0044046384
206	0xbb9db2f8	-0.0048125945
207	0x3b8fd4da	0.0043893876
208	0xbab76130	-0.0013990756
209	0xbc17c206	-0.009262567
210	0x3a4320d0	0.0007443549
211	0xbad430ac	-0.0016188822
212	0xbaac6740	-0.001315333
213	0xbbbe6706	-0.005810621
214	0xbb7e23f8	-0.0038778763
215	0x3abf9c46	0.0014618717
216	0x3a04cea0	0.000506619
217	0x378b5020	1.6607402e-05
218	0x3b8557cb	0.0040693036
219	0xbbbba770	-0.005726747
220	0x3c00c304	0.007858995
221	0x3c42cc84	0.011889581
222	0xbb431493	-0.0029766902
223	0xbaf92f80	-0.0019011348
224	0x3c091c44	0.008368555
225	0x3c0156c7	0.0078942245
226	0x3c05e209	0.008171567
227	0x3be6dcf3	0.007045382
228	0x3b9b268f	0.004734821
229	0x3c215969	0.009847977
230	0x3be9e2fa	0.0071376534
231	0xbb529343	-0.0032131232
232	0x3c258be2	0.010104151
233	0x3bdcf562	0.006743119
234	0x3b30985a	0.0026946277
235	0x39d2e182	0.00040222338
236	0x3be56a8a	0.007001226
237	0xba9e45ca	-0.0012075242
238	0xba808d90	-0.0009807814
239	0x3b8ba6e9	0.0042618406
240	0x39fab390	0.000478175
241	0x3b86377e	0.0040959707
242	0x3baad4a6	0.005213338
243	0x3a6d31ec	0.00090482715
244	0x3bb03c1e	0.0053782603
245	0x3a93e3b8	0.0011283075
246	0xbb80bc7d	-0.0039287196
247	0x3b9161dc	0.0044367146
248	0x3b8d1870	0.0043058917
249	0x3b3a4a1e	0.0028425525
250	0x3ba04ee4	0.004892217
251	0x3af58854	0.0018732646
252	0x3a6a2429	0.000893178
253	0x3b2b1ad7	0.0026108527
254	0x3b31acb8	0.0027111005
255	0x3afbd332	0.0019212721

exp_avg_sq f4 [16, 8, 3, 3]
0	0x39081e13	0.00012981174
1	0x39386ca8	0.00017588085
2	0x3929dc83	0.00016199243
3	0x399eaf15	0.00030266555
4	0x390dafeb	0.00013512342
5	0x390d8179	0.0001349504
6	0x3a28fd41	0.0006446429
7	0x39f38efa	0.00046455098
8	0x39a9f3e6	0.0003241591
9	0x39f3ad04	0.00046477478
10	0x3a113438	0.0005539092
11	0x39a8455e	0.0003209514
12	0x39955c1d	0.00028488124
13	0x39631373	0.00021655652
14	0x3929c77b	0.00016191408
15	0x399c6792	0.00029831805
16	0x39780c9e	0.00023655823
17	0x39748c37	0.00023321887
18	0x3a012636	0.00049266533
19	0x3937ebdd	0.00017540106
20	0x38b9e312	8.8637826e-05
21	0x394bca84	0.00019435032
22	0x38e10db9	0.00010731392
23	0x390335ba	0.00012513148
24	0x39538d29	0.00020175114
25	0x39b61f5b	0.00034737107
26	0x39a5ab01	0.0003159866
27	0x3909c878	0.00013140019
28	0x38bdde06	9.0535774e-05
29	0x38b40a2f	8.584966e-05
30	0x3923973e	0.00015601233
31	0x3940e893	0.00018397188
32	0x3954c29d	0.00020290395
33	0x3947a561	0.00019039727
34	0x396ea70f	0.00022759683
35	0x39b6d4a7	0.00034872183
36	0x394fcbfd	0.0001981705
37	0x392acd14	0.00016288861
38	0x3913cef3	0.00014096107
39	0x39207c0c	0.00015305
40	0x38acbaf3	8.236421e-05
41	0x384700ea	4.744615e-05
42	0x383bffde	4.482257e-05
43	0x380d5ed0	3.370532e-05
44	0x387a0c66	5.961619e-05
45	0x397ff330	0.0002440929
46	0x397c0e23	0.00024037859
47	0x391f5ecb	0.00015198735
48	0x38c9be58	9.619881e-05
49	0x38b8bad2	8.808602e-05
50	0x38877705	6.459471e-05
51	0x390f2e42	0.00013654775
52	0x38c13f77	9.2147784e-05
53	0x3900377a	0.00012227698
54	0x39d9b597	0.0004152476
55	0x39c12b10	0.00036843913
56	0x3987acf7	0.00025878075
57	0x39d8895d	0.00041301074
58	0x395391ed	0.0002017689
59	0x3961b9ac	0.0002152684
60	0x39b80fac	0.0003510689
61	0x39acd9eb	0.00032968758
62	0x399a52d9	0.00029434895
63	0x3999e717	0.0002935461
64	0x39476be7	0.00019018316
65	0x39073907	0.00012895848
66	0x394b9979	0.00019416762
67	0x3921e1d4	0.00015438284
68	0x3921d684	0.0001543407
69	0x396893a6	0.00022180247
70	0x39859dcc	0.00025485305
71	0x398b24b5	0.00026539495
72	0x3979321c	0.00023765158
73	0x39a13fc8	0.00030755834
74	0x399ad54a	0.00029532082
75	0x393deadd	0.00018111938
76	0x39a02ff8	0.00030553318
77	0x39c9e397	0.00038507275
78	0x38a0d963	7.669886e-05
79	0x395b7068	0.00020927342
80	0x398e81d8	0.00027181092
81	0x39366894	0.00017395831
82	0x3927a0c6	0.00015986254
83	0x39541f3c	0.00020229531
84	0x39a0fde6	0.00030706747
85	0x39a2f068	0.00031078164
86	0x39826fbf	0.0002487879
87	0x3984eac9	0.0002535193
88	0x39af64a6	0.0003345359
89	0x3a1c5df6	0.0005964929
90	0x395bd219	0.00020963735
91	0x3952e483	0.00020112288
92	0x3972b20b	0.00023145245
93	0x38f262b6	0.000115578456
94	0x38d1ad1b	9.99814e-05
95	0x393d5ff9	0.00018060197
96	0x38c089ae	9.180918e-05
97	0x390c5264	0.00013382133
98	0x392b2719	0.00016322396
99	0x394b8acb	0.00019411293
100	0x393dcaf3	0.00018100049
101	0x3924fcf9	0.00015734498
102	0x39071312	0.00012881708
103	0x39080a52	0.00012973815
104	0x3960c078	0.00021434005
105	0x38c7c952	9.526558e-05
106	0x38b2fd1f	8.534849e-05
107	0x386de5e3	5.6719302e-05
108	0x37a93674	2.0171727e-05
109	0x37bde3cb	2.263663e-05
110	0x382fa72f	4.1878953e-05
111	0x388a15e0	6.584427e-05
112	0x38417cc2	4.6130976e-05
113	0x380c70ca	3.3483644e-05
114	0x387b1908	5.9866376e-05
115	0x38c79eef	9.518663e-05
116	0x3917937a	0.00014455421
117	0x38d0661f	9.9372344e-05
118	0x388e2b5d	6.779165e-05
119	0x38247356	3.9208062e-05
120	0x3943ac04	0.0001866073
121	0x395e6b54	0.00021211553
122	0x390c1005	0.00013357408
123	0x3919dc5f	0.00014673312
124	0x399360ae	0.00028110057
125	0x39a95bd6	0.00032302615
126	0x38d7e9d0	0.0001029555
127	0x399c219c	0.0002977968
128	0x39b910bb	0.00035298415
129	0x38bf8a32	9.1333306e-05
130	0x398e3b03	0.00027128318
131	0x39d652b6	0.00040878885
132	0x3868ae96	5.5475706e-05
133	0x396090e0	0.00021416275
134	0x399f7027	0.00030410403
135	0x396a861b	0.00022365937
136	0x39863712	0.00025599502
137	0x398bfc14	0.0002669996
138	0x39585d33	0.00020634085
139	0x39815175	0.00024665488
140	0x3986f074	0.00025737623
141	0x393ed90d	0.0001820067
142	0x398187a1	0.0002470585
143	0x39886baa	0.00026020157
144	0x39bd42e6	0.00036098732
145	0x39d333f1	0.00040283756
146	0x397d12d5	0.00024134976
147	0x392ded01	0.00016586857
148	0x39b6e928	0.0003488746
149	0x3a255e7a	0.00063083286
150	0x3934cb49	0.00017241867
151	0x39372f24	0.00017469801
152	0x3a0c3562	0.0005348531
153	0x39e6922f	0.00043977934
154	0x39a7724e	0.00031937886
155	0x39a8b644	0.00032179256
156	0x3a00f3e2	0.0004919154
157	0x39c4b6cc	0.00037520227
158	0x395d189f	0.00021085374
159	0x399983d8	0.00029280665
160	0x39dda614	0.00042276143
161	0x3a01d4c1	0.0004952662
162	0x39fb9372	0.00047984306
163	0x39b2c1d3	0.00034095216
164	0x39ad0984	0.0003300422
165	0x39b94dea	0.00035344
166	0x39062405	0.00012792654
167	0x3967c6b0	0.00022103894
168	0x39094c71	0.00013093815
169	0x39714622	0.00023009678
170	0x3936115c	0.0001736334
171	0x39a3fab5	0.00031276574
172	0x3961684f	0.0002149653
173	0x3943b0f5	0.00018662571
174	0x390d602d	0.00013482636
175	0x3937c46b	0.00017525411
176	0x3931fb79	0.00016973716
177	0x390af2f5	0.00013251214
178	0x393cecee	0.0001801734
179	0x38e5ebed	0.000109635155
180	0x38bee8e2	9.103284e-05
181	0x38d7c043	0.000102878104
182	0x38c51b3e	9.398766e-05
183	0x395657a3	0.00020441278
184	0x38de6ab1	0.00010605658
185	0x385e20ba	5.2959404e-05
186	0x38db1da1	0.000104482526
187	0x38929465	6.989463e-05
188	0x389e05d1	7.5351105e-05
189	0x39008143	0.00012255185
190	0x389c581b	7.4550706e-05
191	0x38617e35	5.376172e-05
192	0x3943aadd	0.000186603
193	0x395ebb60	0.00021241372
194	0x388f9eae	6.848328e-05
195	0x392cbb8a	0.00016473062
196	0x398fdd6b	0.00027440055
197	0x398b8c7f	0.00026616824
198	0x39e053b9	0.00042786988
199	0x39cbaac9	0.00038846422
200	0x39d4e5d4	0.00040607026
201	0x39e0ce07	0.00042878112
202	0x39872201	0.0002577454
203	0x3a18518d	0.0005810492
204	0x399d1812	0.00029963307
205	0x394140a5	0.00018429996
206	0x3a0dbd4c	0.00054069306
207	0x39e6b58a	0.00044004276
208	0x39b7c2f2	0.00035049726
209	0x39cbd4af	0.0003887764
210	0x39b24596	0.0003400265
211	0x39ad98de	0.00033111026
212	0x39dbb2d9	0.00041904187
213	0x397dbf37	0.00024199193
214	0x39cf46f8	0.00039534993
215	0x39c9a0da	0.0003845755
216	0x39833d2e	0.0002503185
217	0x3921166f	0.00015362514
218	0x39080d73	0.00012974981
219	0x39b30ca6	0.00034150964
220	0x39b6e3fa	0.000348836
221	0x3983eae6	0.0002516128
222	0x38967dbf	7.1759794e-05
223	0x39144efa	0.00014143801
224	0x3986d6c0	0.00025718473
225	0x3892fa5e	7.008457e-05
226	0x389ee0e5	7.575917e-05
227	0x389944ca	7.3084215e-05
228	0x39770eb3	0.00023561232
229	0x39552478	0.00020326849
230	0x3950c82c	0.00019910996
231	0x398a61fc	0.00026394415
232	0x39634a34	0.0002167605
233	0x3986e7af	0.0002573109
234	0x392cd221	0.00016481477
235	0x38b96e9c	8.84209e-05
236	0x390b33cb	0.00013275367
237	0x3941a12c	0.00018465956
238	0x39431460	0.0001860424
239	0x394a1951	0.00019273652
240	0x393a1133	0.0001774475
241	0x38cc51ec	9.742737e-05
242	0x38bdae67	9.044707e-05
243	0x390c25dc	0.00013365544
244	0x391c8390	0.0001492633
245	0x394161dd	0.00018442371
246	0x39422653	0.00018515559
247	0x394497a1	0.00018748503
248	0x394c3765	0.00019475592
249	0x3895dc82	7.1459464e-05
250	0x383cc011	4.500157e-05
251	0x3867a376	5.5226927e-05
252	0x37ba37a0	2.219883e-05
253	0x37b62599	2.1713598e-05
254	0x379640a5	1.7911496e-05
255	0x38a3d2c3	7.811703e-05

exp_avg f4 [16]
0	0xb155f70e	-3.1136014e-09
1	0xb0f66104	-1.7926429e-09
2	0xb072a0bf	-8.826752e-10
3	0x2f863122	2.440937e-10
4	0xb01e2388	-5.753056e-10
5	0xb0be4157	-1.384289e-09
6	0x305ba910	7.991199e-10
7	0xb0c6e69a	-1.4471937e-09
8	0x308f673b	1.0433959e-09
9	0x30a50e5d	1.2009412e-09
10	0x3055a591	7.772423e-10
11	0x2ebbc0a4	8.537995e-11
12	0x2e6ad930	5.339834e-11
13	0xb14c1a08	-2.9700704e-09
14	0x307d3828	9.2120667e-10
15	0xb11fedd2	-2.327273e-09

exp_avg_sq f4 [16]
0	0x249a2242	6.684489e-17
1	0x2427b1a7	3.636283e-17
2	0x2477f812	5.376971e-17
3	0x2422032f	3.5130847e-17
4	0x244b736e	4.411638e-17
5	0x248b97db	6.0538894e-17
6	0x24425487	4.2138642e-17
7	0x244bba83	4.417659e-17
8	0x24d31313	9.1538976e-17
9	0x246c62b9	5.1257964e-17
10	0x243585e5	3.9361532e-17
11	0x24c91fc4	8.722367e-17
12	0x24bbfb0e	8.1523626e-17
13	0x24558028	4.6295565e-17
14	0x25200922	1.3880882e-16
15	0x249df4a0	6.850231e-17

exp_avg f4 [16]
0	0x3be714e6	0.007052052
1	0x3afcf7ce	0.0019299926
2	0xbc329caa	-0.010901609
3	0x3c7611cd	0.0150188925
4	0xbbad3f6d	-0.005287102
5	0xba272e65	-0.0006377458
6	0x3b8234ca	0.003973578
7	0x3b4833f6	0.003054855
8	0xbc0cd13a	-0.008594805
9	0xbb311888	-0.0027022678
10	0x3bbb1eb7	0.0057104486
11	0x3b49d677	0.0030797997
12	0xbc24c78e	-0.010057343
13	0xbbfeb3f6	-0.007772918
14	0x3bacae6a	0.005269815
15	0x3ab97804	0.0014150147

exp_avg_sq f4 [16]
0	0x39bf3045	0.00036466322
1	0x399d131f	0.0002995962
2	0x39ecb2e8	0.00045146723
3	0x39ae105b	0.00033200052
4	0x39e17564	0.00043002807
5	0x39cd508c	0.0003916066
6	0x390af879	0.00013253269
7	0x3987e58c	0.00025920232
8	0x3a353f81	0.0006914065
9	0x3a003169	0.0004890175
10	0x396d6afe	0.00022641939
11	0x3a9276d8	0.0011174334
12	0x3a1c3129	0.0005958253
13	0x39be0f01	0.00036250803
14	0x3a07f6a0	0.00051865913
15	0x3a4b5eae	0.0007757944

exp_avg f4 [16]
0	0xb7b4f940	-2.1573738e-05
1	0x3a8b2a5e	0.0010617485
2	0xbb6d92e2	-0.003625088
3	0x3b33d714	0.002744143
4	0xba176e87	-0.0005776663
5	0x39d0fff9	0.00039863566
6	0x3afcd6c6	0.0019290082
7	0x3a797170	0.00095154997
8	0xbb5dc432	-0.0033838865
9	0xbaa217ba	-0.001236669
10	0x3ba26708	0.00495613
11	0x3bbeb212	0.0058195675
12	0xbb11ef77	-0.0022267976
13	0xbb754828	-0.0037427042
14	0x3c0292cd	0.00796957
15	0x3ba0b58f	0.004904456

exp_avg_sq f4 [16]
0	0x396a97f3	0.00022372584
1	0x38ad48e3	8.262859e-05
2	0x3921b65c	0.0001542209
3	0x3965bc34	0.00021909253
4	0x3901f158	0.00012392306
5	0x39832bd7	0.0002501893
6	0x3933f216	0.00017160954
7	0x3905d82e	0.00012764402
8	0x3a87c3a6	0.001035799
9	0x3972171e	0.0002308753
10	0x38f50170	0.00011682778
11	0x3b1fd9a4	0.0024391199
12	0x395c167a	0.00020989208
13	0x39856e54	0.00025449938
14	0x3a4b781c	0.0007761733
15	0x3ab3384a	0.0013673392
