models/model_20241118_213443.pth (torch, 831016 bytes, 8 tensors)

conv1.weight f4 [16, 1, 3, 3]
-0.08855923 -0.39687648 0.0046894327 -0.09181763 -0.22385497 -0.39944836 -0.38992146 0.1310742
-0.12241807 0.23291586 -0.06597846 -0.049689222 -0.03439191 -0.06911437 0.04843055 0.06901713
0.08384846 -0.2998577 0.15138933 0.2133897 0.18390685 -0.10075313 0.38935748 0.032084625
-0.31952405 0.047089178 0.22862318 0.4331384 -0.005629771 0.30030861 0.099397935 -0.12794253
0.17741448 -0.118307225 -0.38116866 -0.38872665 -0.49520653 -0.15756664 0.40926796 -0.35637045
-0.057767767 0.27028984 0.3268333 0.105797976 -0.007196352 0.15702707 0.18381183 -0.077757806
0.31289342 0.13340552 0.285211 -0.45384878 -0.215198 -0.09699393 0.32341838 0.069173954
0.16969337 0.2937362 -0.25588226 0.044413786 -0.01952556 0.056168146 0.33931923 0.28287336
-0.12967235 -0.26857355 -0.06923995 0.01062403 0.34149942 -0.25478128 0.19178693 -0.13160668
-0.21875489 0.061153047 0.27392444 -0.33915782 -0.21557555 0.21854766 -0.040492043 0.050460123
0.38499093 -0.03785739 0.42349815 0.21055235 -0.21630855 0.25727516 0.26152632 -0.4309597
-0.35319126 -0.13799839 0.15333372 0.41655272 0.28510994 0.3746758 0.2746186 -0.2532978
0.011591836 0.35995153 -0.35157847 -0.27395165 -0.34703952 -0.09407165 -0.22913048 0.07752665
-0.3433826 0.20599237 -0.16243148 0.041539885 0.33673838 -0.11281759 -0.37081572 0.33533624
0.22413287 -0.15556197 0.05700319 0.10397491 0.3231681 -0.012826577 0.31125778 -0.2677987
0.12827605 -0.07165564 0.4272067 -0.122892 0.20456144 0.39623177 -0.26529166 0.32481706
-0.040578783 0.32565182 0.09556048 0.2700766 0.19528855 -0.080696166 0.21796136 -0.28850138
-0.2802019 0.15962519 -0.323204 0.25725415 0.26985782 0.08382183 0.25397596 -0.1084293
00000000: 8b5e b5bd 6533 cbbe d0a9 993b e20a bcbd
00000010: 3d3a 65be 7f84 ccbe c9a3 c7be 5138 063e
00000020: 53b6 fabd 7f81 6e3e b71f 87bd ed86 4bbd
00000030: 88de 0cbd d68b 8dbd 1d5f 463d da58 8d3d
00000040: beb8 ab3d f386 99be ce05 1b3e d482 5a3e
00000050: 1452 3c3e a857 cebd dd59 c73e 2b6b 033d
00000060: a898 a3be 95e0 403d 321c 6a3e 51c4 dd3e
00000070: f179 b8bb 0dc2 993e 2591 cb3d 5e03 03be
00000080: 24ac 353e 0f4b f2bd 8a28 c3be 2e07 c7be
00000090: b68b fdbe 2659 21be 928b d13e 3076 b6be
000000a0: e59d 6cbd 6e63 8a3e b256 a73e 9cac d83d
000000b0: 60cf ebbb b4cb 203e 2b39 3c3e 7c3f 9fbd
000000c0: 9133 a03e 759b 083e 2d07 923e de5e e8be
000000d0: dd5c 5cbe c1a4 c6bd 1897 a53e 13ab 8d3d
000000e0: 19c4 2d3e 9764 963e 0003 83be 3beb 353d
000000f0: 11f4 9fbc 9210 663d 40bb ad3e c7d4 903e
00000100: d4c8 04be 7982 89be adcd 8dbd 6910 2e3c
00000110: 03d9 ae3e b172 82be cb63 443e e7c3 06be
00000120: 4801 60be 9e7b 7a3d d33f 8c3e 18a6 adbe
00000130: d6bf 5cbe f5ca 5f3e fcda 25bd 46af 4e3d
00000140: 881d c53e 5a10 1bbd c0d4 d83e 099b 573e
00000150: fd7f 5dbe 92b9 833e c7e6 853e c0a6 dcbe
00000160: 7cd5 b4be 734f 0dbe 8403 1d3e 6646 d53e
00000170: eef9 913e 82d5 bf3e cf9a 8c3e 40b0 81be
00000180: afeb 3d3c 914b b83e 1802 b4be 6443 8cbe
00000190: 2aaf b1be a3a8 c0bd 2ea1 6abe 4bc6 9e3d
000001a0: d8cf afbe aaef 523e 7054 26be ba25 2a3d
000001b0: f968 ac3e e90c e7bd 8fdb bdbe 31b1 ab3e
000001c0: 1683 653e a34b 1fbe 2d7c 693d ccf0 d43d
000001d0: 4a76 a53e 9026 52bc 2e5d 9f3e e91c 89be
000001e0: cc5a 033e 31c0 92bd d6ba da3e cdae fbbd
000001f0: 8e78 513e e4de ca3e 4fd4 87be 6c4e a63e
00000200: f035 26bd d6bb a63e 37b5 c33d 7b47 8a3e
00000210: b9f9 473e 0844 a5bd 4331 5f3e 74b6 93be
00000220: a076 8fbe c974 233e ff7a a5be d1b6 833e
00000230: ce2a 8a3e c8aa ab3d 2309 823e 2e10 debd

conv1.bias f4 [16]
-0.18901777 0.22188178 -0.163512 0.14451009 -0.057195246 -0.115888506 0.19380377 -0.018453918
-0.0317214 0.17785686 -0.15505041 0.17928267 -0.2778044 0.28233638 -0.063276686 -0.027382784
00000000: e08d 41be fa34 633e b16f 27be 74fa 133e
00000010: 9045 6abd f456 edbd 7f74 463e ac2c 97bc
00000020: 4cee 01bd 1c20 363e 89c5 1ebe e095 373e
00000030: 613c 8ebe 658e 903e 3597 81bd dc51 e0bc

conv2.weight f4 [32, 16, 3, 3]
-0.14375477 -0.17349488 -0.03060802 -0.06563687 -0.18382199 -0.014352641 -0.1154481 -0.12981673
-0.025326736 0.027068684 -0.07089946 -0.07163948 -0.10187202 -0.13065231 0.04798657 0.0072959606
-0.07783008 0.02373821 -0.011108571 -0.016407289 -0.0026061598 0.08628917 -0.0666113 -0.048950803
-0.027688943 0.052378803 0.027072258 -0.0011425581 -0.04394616 0.070427775 -0.05429313 -0.025452824
-0.026589662 0.04781477 0.0058139004 0.08156322 -0.07101013 0.10100268 0.0235601 -0.07331277
0.030590672 0.057582144 0.05034464 -0.100843094 0.019871125 0.021756008 -0.07255193 -0.029429762
0.14465731 -0.022034032 0.08751022 0.07982715 0.062245768 0.033400223 0.06720006 0.0075344667
-0.027431415 0.039370682 0.011551421 -0.006019856 0.06254967 -0.05242212 0.050918825 -0.02290034
0.025158882 -0.037552364 -0.03290741 -0.010769133 0.027476413 -0.08204623 0.033978842 0.0939942
-0.04688817 0.10397256 0.06050826 -0.018962743 0.07320937 0.04169832 -0.0744633 -0.046772968
-0.112459265 -0.09272423 -0.07942075 0.028473927 0.03479022 -0.026513644 -0.052279867 0.036838222
-0.032821085 0.08074457 -0.04103113 -0.033874996 0.048928376 0.0230826 0.023817522 0.097655766
-0.06533631 -0.0010779224 0.003832472 0.0050384835 -0.04449651 -0.029284095 -0.059064172 -0.15509312
-0.06430402 0.016614674 -0.0828167 -0.11722362 0.106263936 0.051507864 -0.089805506 0.109723985
0.07064711 0.08028403 -0.038889453 0.07241818 0.07986093 0.029328387 -0.0011319874 -0.05133291
0.087789215 0.04057108 0.0315232 -0.043312296 -0.025151134 0.03971008 0.04662513 -0.04091065
-0.08593444 0.07270933 -0.0016466725 -0.06639492 0.050531305 -0.06001936 -0.003129255 -0.055795625
-0.009116276 0.065956526 0.04442578 0.04556009 0.017654778 -0.06780174 -0.11781022 -0.00041112353
-0.13599971 -0.055749733 -0.07009192 -0.15262344 -0.07597078 -0.10922729 0.0042254776 -0.102262236
-0.09156628 -0.078072555 0.043060847 -0.031326707 0.04541844 0.026737217 -0.011902107 -0.005312997
0.068001874 0.055047642 0.052812785 -0.14308557 0.008484475 -0.0111678 -0.095790185 -0.041785497
-0.028090905 -0.021325108 -0.041557796 -0.06194218 0.121955805 -0.07919497 0.10055778 -0.047975842
-0.109414004 0.022434093 0.046172142 0.03269282 0.16970181 0.04061228 0.095068485 0.0837104
-0.05551729 0.054146484 -0.020436393 0.09129545 0.03337681 -0.10759808 0.08980385 -0.08175555
0.10746219 0.06802136 0.024658803 -0.0024636362 -0.015553479 0.051940262 -0.082640745 -0.05415017
-0.083630964 -0.06668629 0.026362518 -0.08678472 0.012917705 0.0035354549 0.009910203 -0.044281807
0.06710521 0.045689058 0.12847939 0.15619221 -0.009813017 0.11397883 0.04852237 0.16912973
0.13587886 -0.068088904 -0.060970332 -0.071644016 -0.01877504 -0.061743695 -0.030791864 0.012475744
-0.025548823 -0.009888381 -0.050475024 -0.031500977 0.09550766 -0.021404043 -0.039505478 -0.018597316
0.08047923 0.022466293 0.10812691 0.10472428 -0.11283453 0.0030063638 -0.13294557 -0.058253907
-0.03571145 0.00496388 0.05044733 -0.11354348 -0.041592736 -0.07937473 -0.0052200635 -0.12322874
-0.009863627 -0.08095368 -0.03585819 -0.13767093 0.012367552 0.094516814 0.0021002449 -0.027466655
00000000: 7334 13be a4a8 31be acbd fabc a06c 86bd
00000010: d53b 3cbe 5727 6bbc 0e70 ecbd adee 04be
00000020: 047a cfbc 25bf dd3c bc33 91bd b8b7 92bd
00000030: 47a2 d0bd b8c9 05be 918d 443d f412 ef3b
00000040: 6165 9fbd a276 c23c b900 36bc 9468 86bc
00000050: 1bcc 2abb 60b8 b03d 816b 88bd a380 48bd
00000060: ecd3 e2bc 288b 563d a4c6 dd3c e3c1 95ba
00000070: e300 34bd 703c 903d 7962 5ebd 7182 d0bc
00000080: 90d2 d9bc 6cd9 433d 8882 be3b 9e0a a73d
00000090: c26d 91bd 7eda ce3d 1c01 c13c 0125 96bd
000000a0: 4a99 fa3c 41db 6b3d 2e36 4e3d d386 cebd
000000b0: c5c8 a23c a839 b23c 1b96 94bd af16 f1bc
000000c0: 0c21 143e b780 b4bc 8f38 b33d 6b7c a33d
000000d0: 6bf5 7e3d acce 083d 2fa0 893d b0e3 f63b
000000e0: d9b7 e0bc 2743 213d 2c42 3d3c 3642 c5bb
000000f0: 0b1a 803d 94b8 56bd 4290 503d 7e99 bbbc
00000100: 001a ce3c 82d0 19bd ecc9 06bd 0571 30bc
00000110: 3716 e13c db07 a8bd 662d 0b3d 0880 c03d
00000120: cf0d 40bd 91ef d43d 82d7 773d c157 9bbc
00000130: cbee 953d dccb 2a3d 3780 98bd 0395 3fbd
00000140: 0b51 e6bd 33e6 bdbd 59a7 a2bd 2742 e93c
00000150: 3180 0e3d 2433 d9bc 6a23 56bd ade3 163d
00000160: 676f 06bd 695d a53d 4210 28bd 82c0 0abd
00000170: 1f69 483d b917 bd3c f71c c33c bfff c73d
00000180: 0bcf 85bd 1349 8dba 362a 7b3b dd19 a53b
00000190: f941 36bd 33e5 efbc 46ed 71bd bbd0 1ebe
000001a0: d3b1 83bd 7f1b 883c cd9b a9bd f012 f0bd
000001b0: e8a0 d93d e9f9 523d f3eb b7bd f8b6 e03d
000001c0: 6faf 903d f46b a43d 8c4a 1fbd fc4f 943d
000001d0: 218e a33d 1642 f03c 325f 94ba 7542 52bd
000001e0: d5ca b33d dc2d 263d 791e 013d 3c68 31bd
000001f0: c009 cebc 09a7 223d fef9 3e3d ed91 27bd
00000200: 65fe afbd a1e8 943d 29d5 d7ba 0ffa 87bd
00000210: eaf9 4e3d dcd6 75bd 3014 4dbb f489 64bd
00000220: 6f5c 15bc 3714 873d cff7 353d 389d 3a3d
00000230: c1a0 903c a3db 8abd 7c46 f1bd 118c d7b9
00000240: 8243 0bbe d559 64bd 5a8c 8fbd 5249 1cbe
00000250: 9196 9bbd 8fb2 dfbd e075 8a3b dd6e d1bd
00000260: 1a87 bbbd 81e4 9fbd 9260 303d 6f50 00bd
00000270: b008 3a3d 0208 db3c 0e01 43bc a618 aebb
00000280: 9144 8b3d a379 613d 3852 583d 0685 12be
00000290: 7802 0b3c 26f9 36bc a52d c4bd 4527 2bbd
000002a0: e61e e6bc feb1 aebc 8238 2abd 15b7 7dbd
000002b0: f7c3 f93d f930 a2bd 3df1 cd3d 5182 44bd
000002c0: 7314 e0bd b4c7 b73c 001f 3d3d e8e8 053d
000002d0: 50c6 2d3e 1059 263d 44b3 c23d 5c70 ab3d
000002e0: 1966 63bd b4c8 5d3d 396a a7bc 1cf9 ba3d
000002f0: 1fb6 083d 625c dcbd 15eb b73d 746f a7bd
00000300: 2315 dc3d c84e 8b3d 4201 ca3c f574 21bb
00000310: 05d4 7ebc 50bf 543d 8d3f a9bd 92cc 5dbd
00000320: b646 abbd d292 88bd 35f6 d73c 30bc b1bd
00000330: c8a4 533c 17b3 673b 675e 223c d760 35bd
00000340: 756e 893d 7324 3b3d 1a90 033e daf0 1f3e
00000350: c7c6 20bc bc6d e93d 65bf 463d 5830 2d3e
00000360: d423 0b3e 3272 8bbd 07bc 79bd 19ba 92bd
00000370: 1dce 99bc f5e6 7cbd 383f fcbc 1067 4c3c
00000380: c44b d1bc e002 22bc e6be 4ebd 2b07 01bd
00000390: 8599 c33d 8857 afbc 7fd0 21bd 6659 98bc
000003a0: 4bd2 a43d 3b0b b83c a471 dd3d af79 d63d
000003b0: ca15 e7bd 6a06 453b e222 08be a69b 6ebd
000003c0: 2b46 12bd 0ba8 a23b dca1 4e3d 7c89 e8bd
000003d0: 255d 2abd 388f a2bd 110d abbb 5a5f fcbd
000003e0: 0d9b 21bc 0bcb a5bd 0ae0 12bd 9cf9 0cbe
000003f0: 46a1 4a3c 0892 c13d 43a4 093b c001 e1bc

conv2.bias f4 [32]
-0.040145904 -0.08306392 -0.05179936 -0.115362525 -0.013863119 0.004643403 -0.012152156 -0.09068626
-0.011628818 -0.04079379 -0.0780301 -0.04414581 -0.023891667 0.02430435 0.032992143 0.00097604416
-0.037231598 -0.099667 -0.06631482 -0.058834594 -0.04654989 -0.0379072 -0.029120486 0.086082384
-0.07143858 0.01822079 0.03229974 -0.03528381 -0.057889033 -0.021650009 -0.085357 0.023628965
00000000: 0870 24bd 6b1d aabd 912b 54bd 3043 ecbd
00000010: 2322 63bc b027 983b d619 47bc b8b9 b9bd
00000020: cc86 3ebc 6417 27bd 3fce 9fbd 3dd2 34bd
00000030: 75b8 c3bc eb19 c73c c522 073d 37dd 7f3a
00000040: 2980 18bd 361e ccbd 10d0 87bd 8bfc 70bd
00000050: 19ab 3ebd 9544 1bbd 168e eebc f64b b03d
00000060: 644e 92bd c443 953c bb4c 043d c285 10bd
00000070: 0d1d 6dbd 5c5b b1bc a7cf aebd 8891 c13c

fc1.weight f4 [128, 1568]
0.014212797 0.020065373 0.034249403 0.010298282 0.004823648 0.0062221326 0.016388386 -0.020322373
-0.008100156 -0.011843749 0.021255357 0.020520467 0.00831353 -0.012245103 0.0073324577 -0.0031347224
0.03001023 0.003417886 0.023208542 -0.010636627 0.005633319 0.01189554 0.027916886 0.020005414
0.028447706 0.00023400818 0.012996048 0.05020879 -0.0044072964 0.040762633 0.02422722 -0.014098161
0.0071202093 -0.015926009 0.015248849 0.009389503 0.015007739 0.026233096 0.028751107 0.008051982
0.013108275 0.035524964 0.0124311745 -0.019558674 0.030821338 0.007932884 0.02816694 0.031498127
0.0028684996 -0.015880309 -0.01302846 -0.007729394 0.02141284 0.004837296 0.024865078 -0.022147682
-0.023247577 0.017477155 0.030582188 0.0237814 0.0044528376 0.0046367464 -0.024315877 -0.01303191
-0.018003365 0.018186584 0.01565021 0.058477823 0.017680356 -0.021495419 -0.06441779 0.03476575
0.049893636 -0.008292886 -0.003448951 -0.0060857176 0.025411502 -0.04774154 0.028136665 -0.0034884887
0.0318557 0.02236272 0.00069133163 -0.0028724542 -0.02352638 -0.008715446 0.04481688 0.058553934
0.034629405 0.030397834 0.027203264 -0.014340584 -0.009892997 -0.08509763 -0.012301827 -0.0047338763
0.0023740677 0.0039326954 0.0016549369 -0.042316366 -0.0062128333 0.01387469 0.027273137 -0.011665211
0.0019531103 -0.009540681 -0.0101809865 0.0007149596 -0.04392462 -0.004732885 -0.04748592 -0.027167447
0.0024619196 0.05608454 0.0028867533 -0.0071767634 0.028528145 0.06331347 0.009789126 0.031402737
0.054518282 0.055733576 0.05340007 -0.008395536 0.021842623 0.036724046 -0.017221475 0.011769822
0.0075262324 0.017368091 0.037693758 0.03021344 -0.026942095 0.006877812 -0.00097214326 -0.013893083
0.0041302666 0.022138147 0.000623878 -0.0304607 -0.0336088 -0.026384924 0.021288833 0.005894177
0.012256985 0.018767105 0.022738863 0.025697285 0.022635153 0.012013452 0.0038709894 0.01826137
0.024624184 0.0053284373 -0.02880841 0.0010653039 0.036086235 -0.0022445188 0.014963991 -0.016588219
0.02700574 0.034093242 0.027906224 0.022655936 0.0306594 0.017450133 0.0111424755 0.014893785
0.02194496 0.009455361 0.0025780962 0.022893835 0.013147123 0.036017943 0.024879836 0.0068023945
0.010008616 -0.0086462125 0.019405315 0.013619917 -0.021245226 -0.011211317 -0.033693604 -0.014904287
-0.0034504954 -0.00024566372 -0.0034912778 0.0022860493 0.033836577 -0.035555728 -0.028068528 -0.027097184
0.00086858455 -0.01737347 0.024829958 0.01407375 0.008749576 -0.0096509885 -0.0058305175 0.0017563152
0.03975899 0.04007852 0.0059782187 -0.023225611 -0.011100441 -0.018283494 -0.023469271 -0.010627394
-0.03110095 -0.0321695 -0.024714096 0.028622022 0.008665757 -0.0027814424 -0.024843926 -0.0041414336
0.044036042 0.004502963 0.0064319237 0.03880975 0.0075682476 -0.01620253 0.00013327422 0.036844652
-0.036506746 0.0010803241 0.04893057 0.011576135 0.017437711 0.0019003468 -0.0056413356 0.006235369
0.027612772 0.014462893 -0.016399752 0.025280561 0.006023997 0.006031312 -0.014263135 -0.018408632
0.005503347 0.020026151 -0.00084442593 0.02969331 0.015851915 0.003940376 -0.011226287 0.03228366
0.06608446 0.035378642 0.03552038 0.024852417 -0.0038641142 -0.014279824 0.042161837 -0.0029365402
00000000: cbdc 683c 2360 a43c 1a49 0c3d 20ba 283c
00000010: b10f 9e3b 08e3 cb3b f040 863c 1b7b a6bc
00000020: 84b6 04bc 490c 42bc b71f ae3c 8a1a a83c
00000030: 7935 083c af9f 48bc 1d45 f03b ea6f 4dbb
00000040: 04d8 f53c 9dfe 5f3b d71f be3c 3f45 2ebc
00000050: b497 b83b 83e5 423c f4b1 e43c 65e2 a33c
00000060: 2a0b e93c 1860 7539 60ed 543c bba7 4d3d
00000070: 156b 90bb b8f6 263d 2a78 c63c f9fb 66bc
00000080: a550 e93b 4377 82bc 4fd6 793c 6ed6 193c
00000090: 05e3 753c cae6 d63c 7187 eb3c 76ec 033c
000000a0: 17c4 563c a082 113d 20ac 4b3c 8339 a0bc
000000b0: 087d fc3c edf8 013c 5bbe e63c 2e04 013d
000000c0: 70fd 3b3b 6c17 82bc 5275 55bc db46 fdbb
000000d0: fb69 af3c 2e82 9e3b d9b1 cb3c 0e6f b5bc
000000e0: b471 bebc 402c 8f3c 7f87 fa3c 36d1 c23c
000000f0: 1ce9 913b d9ef 973b 1732 c7bc cb83 55bc
00000100: cb7b 93bc 08fc 943c df34 803c 7186 6f3d
00000110: 65d6 903c 2917 b0bc 79ed 83bd 8866 0e3d
00000120: 455d 4c3d e3de 07bc cc07 62bb b36a c7bb
00000130: c82b d03c a28c 43bd dd7e e63c 219f 64bb
00000140: 1f7b 023d 0632 b73c 7b3a 353a c93f 3cbb
00000150: 65ba c0bc 3bcb 0ebc e891 373d 40d6 6f3d
00000160: 90d7 0d3d e104 f93c 61d9 de3c c5f4 6abc
00000170: 3d16 22bc ab47 aebd 9a8d 49bc a21e 9bbb
00000180: 3f96 1b3b d7dd 803b 78ea d83a ed53 2dbd
00000190: 0695 cbbb ab52 633c ea6b df3c 711f 3fbc
000001a0: 82ff ff3a 8450 1cbc 27ce 26bc 206c 3b3a
000001b0: 4dea 33bd 5116 9bbb 9980 42bd 448e debc
000001c0: 2858 213b e7b8 653d af2f 3d3b 0e2b ebbb
000001d0: dbb3 e93c 7eaa 813d 9262 203c 28a0 003d
000001e0: 904e 5f3d e448 643d 08ba 5a3d 6e8d 09bc
000001f0: 4def b23c f46b 163d 0d14 8dbc 36d6 403c
00000200: 9d9e f63b 8747 8e3c c564 1a3d 2d82 f73c
00000210: abb5 dcbc 455f e13b 6ed7 7eba d09f 63bc
00000220: 3057 873b 0f5b b53c be8b 233a b888 f9bc
00000230: 62a9 09bd 3225 d8bc eb65 ae3c f123 c13b
00000240: 85d1 483c 79bd 993c da46 ba3c 1d83 d23c
00000250: 5b6d b93c 12d4 443c 6db0 7d3b de98 953c
00000260: a8b8 c93c 2c9a ae3b 9dff ebbc aba1 8b3a
00000270: 29cf 133d c718 13bb 872b 753c 04e4 87bc
00000280: 243b dd3c 5ba5 0b3d 989b e43c f198 b93c
00000290: 6c29 fb3c 95f3 8e3c ee8e 363c 1005 743c
000002a0: ebc5 b33c a9ea 1a3c 47f5 283b da8b bb3c
000002b0: 0867 573c 8d87 133d ccd0 cb3c 9fe6 de3b
000002c0: 2efb 233c d8a8 0dbc e5f7 9e3c 1326 5f3c
000002d0: 780a aebc acaf 37bc 4e02 0abd 1c31 74bc
000002e0: b521 62bb 6dcc 80b9 eccd 64bb 8bd1 153b
000002f0: 3998 0a3d e2a2 11bd f8ef e5bc eafa ddbc
00000300: b9b1 633a cf52 8ebc 3268 cb3c 9695 663c
00000310: 625a 0f3c 2e1f 1ebc ed0d bfbb 2934 e63a
00000320: 53da 223d 6029 243d efe4 c33b a343 bebc
00000330: a0de 35bc 44c7 95bc a142 c0bc 851e 2ebc
00000340: 6bc7 febc 2ac4 03bd 3775 cabc bb78 ea3c
00000350: d2fa 0d3c dc48 36bb 7d85 cbbc ddb4 87bb
00000360: 235f 343d 978d 933b e3c2 d23b f9f6 1e3d
00000370: 10ff f73b 2bbb 84bc 87bf 0b39 6bea 163d
00000380: 1988 15bd a999 8d3a 6c6b 483d d4a9 3d3c
00000390: 88d9 8e3c 0f15 f93a f4da b8bb 1152 cc3b
000003a0: 2e34 e23c c5f5 6c3c c658 86bc 2e19 cf3c
000003b0: f364 c53b 50a2 c53b edaf 69bc b3cd 96bc
000003c0: 6c55 b43b e20d a43c 775c 5dba 623f f33c
000003d0: e0db 813c 451e 813b 76ee 37bc df3b 043d
000003e0: 4a57 873d 32e9 103d d17d 113d 4c97 cb3c
000003f0: 143d 7dbb ecf5 69bc e4b1 2c3d f872 40bb

fc1.bias f4 [128]
-0.016774626 0.020953616 -0.024677806 -0.0075622327 -0.030134015 0.018801669 -0.015254688 0.0029593972
-0.010165331 0.0025558213 0.03078567 -0.022281168 -0.032783538 -0.013625317 0.020753339 0.026265364
0.0049383827 -0.052995536 -0.02429622 -0.008935616 -0.008460887 -0.0015032738 0.02294411 -0.007476846
0.03126787 -0.003712054 -0.004899947 0.026613865 0.05023802 0.027685944 -0.001984073 -0.0051256446
0.018054148 0.025663784 0.010811437 -0.03145548 -0.022545705 0.0070073907 -0.0017545279 0.011558621
-0.011107509 0.0014726758 0.010480889 0.039207876 -0.007862354 0.0033342768 -0.018731548 -0.010468643
0.016082931 0.0069767595 -0.025397707 0.027814144 0.027762145 -0.015546309 0.0154915545 0.0309522
0.032019597 0.018269768 0.01517068 0.018468078 -0.014530818 -0.0070128124 -0.01532472 0.016967481
-0.0015855536 0.02813668 -0.004071207 0.027661476 -0.01379874 0.009886566 3.9767474e-05 -0.004131938
-0.016593507 0.011942185 -0.0055266996 -0.018330306 -0.01275729 -0.005263444 0.0028774613 -0.02578052
0.010322955 0.006715686 -0.00036025082 -0.024070805 0.008422768 0.028832827 -0.019474117 0.030920608
0.024646986 0.022313107 -0.02478442 0.01593499 0.003495891 0.023806088 0.01303609 0.029315308
0.0010015275 0.0007550705 0.010772089 0.018078674 0.023885468 0.0051791235 -0.03090835 0.010551098
0.004518495 -0.009596972 -0.004103714 4.746691e-05 -0.0119491145 -0.025071962 0.026649486 -0.02240617
-0.0072488408 0.039642304 0.020355133 -0.0034058709 0.0056993174 -0.020218613 0.0071470737 0.01894001
-0.025856642 0.0031427883 -0.0095082335 0.009928706 0.0051574353 0.018243764 0.014696577 -0.01704973
00000000: f16a 89bc eba6 ab3c 1c29 cabc 9bcc f7bb
00000010: 9cdb f6bc f505 9a3c cdee 79bc 72f2 413b
00000020: 7d8c 26bc 917f 273b 3b32 fc3c ff86 b6bc
00000030: 0848 06bd b93c 5fbc e802 aa3c 762a d73c
00000040: 28d2 a13b d911 59bd de08 c7bc b166 12bc
00000050: 889f 0abc 8009 c5ba 49f5 bb3c 5500 f5bb
00000060: bd12 003d ef45 73bb bc8f a0bb 5205 da3c
00000070: 62c6 4d3d a2cd e23c 3907 02bb 06f5 a7bb
00000080: 4be6 933c db3c d23c 7422 313c 76d7 00bd
00000090: c5b1 b8bc 419e e53b 30f8 e5ba 5f60 3d3c
000000a0: 45fc 35bc cd06 c13a 09b8 2b3c 7098 203d
000000b0: 1ad1 00bc e283 5a3b e772 99bc ac84 2bbc
000000c0: 5ac0 833c 4d9d e43b da0e d0bc 7dda e33c
000000d0: 706d e33c f2b5 7ebc 4ad0 7d3c 788f fd3c
000000e0: fb26 033d 7baa 953c 728e 783c 5e4a 973c
000000f0: ab12 6ebc bccb e5bb 8914 7bbc 63ff 8a3c
00000100: 5ad2 cfba e57e e63c c267 85bb 529a e23c
00000110: 1c14 62bc 43fb 213c 00cc 2638 3565 87bb
00000120: 1bef 87bc 28a9 433c 5119 b5bb 7029 96bc
00000130: f403 51bc f878 acbb ca93 3c3b ab31 d3bc
00000140: 9d21 293c 420f dc3b 0ce0 bcb9 2330 c5bc
00000150: a6ff 093c d232 ec3c 2f88 9fbc 374d fd3c
00000160: 7ae8 c93c fac9 b63c b208 cbbc 198a 823c
00000170: 521b 653b fc04 c33c 5395 553c a826 f03c
00000180: b045 833a ecef 453a 6a7d 303c ba19 943c
00000190: 75ab c33c a3b5 a93b 8233 fdbc 83de 2c3c
000001a0: e20f 943b 9e3c 1dbc 7378 86bb 3517 4738
000001b0: 38c6 43bc b763 cdbc 0650 da3c 258d b7bc
000001c0: af87 edbb f85f 223d cfbf a63c 0835 5fbb
000001d0: 57c1 ba3b 81a1 a5bc 0032 ea3b 1428 9b3c
000001e0: 4fd1 d3bc 3df7 4d3b 6cc8 1bbc 03ac 223c
000001f0: b4ff a83b f273 953c e9c9 703c e0ab 8bbc

fc2.weight f4 [10, 128]
0.008685453 -0.03206883 -0.047639154 -0.015762035 -0.024596095 -0.12788382 -0.027007869 0.07066383
-0.12818375 0.065549664 -0.14595121 -0.046397552 0.02968503 0.076194525 0.04458272 0.051214036
-0.018929932 0.07506142 0.005363466 -0.04907369 -0.04823757 -0.014316253 -0.10356986 0.005942709
0.036943864 -0.001999547 0.024514966 -0.09838162 -0.07883712 -0.043948926 -0.035675485 0.009484552
-0.04852645 -0.01419019 0.06984289 0.010889982 -0.050113257 -0.042802416 -0.016930107 0.057853583
-0.06293413 0.039132692 0.11849726 -0.13854618 -0.019317802 0.083029926 0.06270656 -0.039492473
0.053870328 -0.034306288 -0.06311281 0.120880455 -0.025786737 0.09798494 -0.046875227 0.050233103
-0.0009346084 0.07889489 -0.104811504 -0.007961232 0.003075921 -0.012619032 0.013977963 -0.01282748
0.033110783 0.07078207 -0.06961218 0.08240701 -0.08180522 0.03764466 0.06810652 0.07284515
0.028158024 -0.005272677 -0.060115315 0.05296843 -0.0021687094 -0.07149701 -0.04764532 -0.025148937
0.051642165 -0.051238734 0.06106996 -0.028990395 -0.09242307 0.016000034 -0.00693059 0.09122298
-0.08628619 -0.114289306 -0.13288002 -0.07370511 -0.0048809056 0.04065387 -0.0406929 0.01958454
-0.025770998 -0.077670135 0.09042345 -0.07211544 0.08300491 0.030913798 0.0887942 -0.09519734
0.00032153825 -0.050413962 -0.04450114 -0.064343676 -0.06877176 0.007960586 0.007934983 0.07252127
0.1299592 -0.084006086 -0.11199154 0.032502312 0.05182247 -0.08595648 -0.023112167 -0.044474557
-0.11088229 0.026627205 0.019488344 0.041411504 -0.029681036 -0.049453605 0.010670026 -0.0077809263
-0.09806581 -0.12993123 0.07022977 -0.0361942 0.078474075 0.056204047 -0.015362587 -0.029562954
0.03698302 -0.14266172 0.052706335 0.016118664 -0.01154794 -0.03812354 0.0501344 0.028037803
0.020026965 0.03395441 -0.01972425 -0.07396335 0.028860671 -0.07234184 0.06652453 0.008918067
0.04295082 0.05194489 -0.06938916 0.11768109 0.11686993 0.077495426 -0.10780857 -0.020934189
0.02368779 0.110570356 -0.06376942 0.0815474 -0.05274739 -0.005625398 -0.11630904 0.10717464
0.027860714 -0.08948473 0.04078311 0.06653861 0.0141054215 -0.048654824 -0.050350588 -0.060991902
-0.08503854 -0.005676548 0.05243872 0.108527295 -0.119205974 -0.09168275 0.084360786 0.057342626
0.10032558 -0.055271495 0.055716306 0.07122039 -0.10185293 0.0067059794 0.033135433 0.07061432
-0.0075785466 -0.04209495 -0.016236212 -0.00811535 -0.009201968 -0.058706205 -0.12012341 -0.093115956
-0.11116841 0.0922624 -0.06694675 0.029764885 0.059373032 0.048142705 0.02898672 -0.017657598
0.09550936 -0.03933952 -0.06796159 0.05465855 0.034159634 0.07943884 -0.00899223 0.020798588
-0.0035036004 0.10719294 0.03693434 -0.052720122 -0.06421477 -0.050044186 -0.046615917 0.01418466
-0.06812753 -0.12040935 0.04120902 0.06134926 -0.106419526 -0.0355339 -0.07269556 -0.07479037
0.08553216 -0.088511735 -0.069727555 -0.074565016 0.027458563 -0.07904802 0.078814104 0.07072
0.123775944 0.11721761 0.019043809 0.03437369 0.0081988545 -0.033348843 0.059701245 -0.10343199
-0.086829 -0.045969643 0.07555107 -0.040730286 -0.04422206 -0.018238459 0.046070646 0.035618383
00000000: 6e4d 0e3c 9b5a 03bd 4621 43bd 621f 81bc
00000010: c07d c9bc faf3 02be 9b3f ddbc 33b8 903d
00000020: 9a42 03be e73e 863d 3c74 15be 5c0b 3ebd
00000030: 052e f33c e00b 9c3d 5f9c 363d cfc5 513d
00000040: f212 9bbc cdb9 993d 04c0 af3b 7e01 49bd
00000050: c294 45bd b88e 6abc 6f1c d4bd 0ebb c23b
00000060: 7352 173d d50a 03bb 9cd3 c83c 4e7c c9bd
00000070: 5b75 a1bd ca03 34bd 7520 12bd 1865 1b3c
00000080: acc3 46bd f87d 68bc ca09 8f3d e56b 323c
00000090: 8f43 4dbd 9651 2fbd 02b1 8abc e1f7 6c3d
000000a0: 9ce3 80bd 9a49 203d b1ae f23d 0ddf 0dbe
000000b0: 5e40 9ebc 980b aa3d 4c6c 803d dcc2 21bd
000000c0: 22a7 5c3d c084 0cbd 4a41 81bd 2c90 f73d
000000d0: b53e d3bc 54ac c83d 3d00 40bd 3ac1 4d3d
000000e0: 8200 75ba a593 a13d 6aa7 d6bd d46f 02bc
000000f0: 6495 493b 0ec0 4ebc d303 653c 5a2a 52bc
00000100: 2c9f 073d 31f6 903d d590 8ebd 02c5 a83d
00000110: 7f89 a7bd 4931 1a3d 6e7b 8b3d d72f 953d
00000120: a8ab e63c 6cc6 acbb 7a3b 76bd 6df5 583d
00000130: e820 0ebb 066d 92bd bd27 43bd 2505 cebc
00000140: bc86 533d b5df 51bd 7f24 7a3d 447d edbc
00000150: 4e48 bdbd 8112 833c 011a e3bb 1dd3 ba3d
00000160: d0b6 b0bd 8310 eabd b311 08be b4f2 96bd
00000170: 01f0 9fbb ac84 263d 99ad 26bd c26f a03c
00000180: b31d d3bc 8511 9fbd ee2f b93d 43b1 93bd
00000190: 7afe a93d ef3e fd3c bcd9 b53d d3f6 c2bd
000001a0: 2294 a839 df7e 4ebd d446 36bd 9ec6 83bd
000001b0: 35d8 8cbd 1e6d 023c bb01 023c 0886 943d
000001c0: 0614 053e 620b acbd d25b e5bd 2521 053d
000001d0: cc43 543d f309 b0bd ba55 bdbc f42a 36bd
000001e0: 4116 e3bd 4c21 da3c 05a6 9f3c 1c9f 293d
000001f0: a525 f3bc dd8f 4abd 55d1 2e3c 24f7 febb
00000200: bad6 c8bd b10c 05be a0d4 8f3d 5f40 14bd
00000210: 04b7 a03d 3736 663d 5cb3 7bbc 022e f2bc
00000220: 827b 173d ea15 12be 99e2 573d 4a0b 843c
00000230: 9233 3dbc 6e27 1cbd bb59 4d3d 89af e53c
00000240: 970f a43c c813 0b3d c094 a1bc 197a 97bd
00000250: 376d ec3c f527 94bd 033e 883d 161d 123c
00000260: 33ed 2f3d 2ac4 543d e71b 8ebd c902 f13d
00000270: 8059 ef3d ecb5 9e3d bdca dcbd 2d7e abbc
00000280: e50c c23c b672 e23d 8b99 82bd 5302 a73d
00000290: a60d 58bd 4255 b8bb 6f33 eebd 617e db3d
000002a0: 273c e43c c543 b7bd 310c 273d 6545 883d
000002b0: 6d1a 673c 484a 47bd 6b3c 4ebd a5d2 79bd
000002c0: b028 aebd 5602 babb fcc9 563d 8f43 de3d
000002d0: 4322 f4bd 2ac4 bbbd 59c5 ac3d 1ae0 6a3d
000002e0: 7f77 cd3d 5d64 62bd c836 643d ffdb 913d
000002f0: 4598 d0bd d5bd db3b 05b9 073d 3e9e 903d
00000300: 7555 f8bb c16b 2cbd ce01 85bc 3ff6 04bc
00000310: dac3 16bc eb75 70bd 4303 f6bd 94b3 bebd
00000320: 43ac e3bd 12f4 bc3d 611b 89bd 7dd5 f33c
00000330: 2331 733d 4931 453d 8f75 ed3c aba6 90bc
00000340: 699a c33d 7a22 21bd 722f 8bbd a5e1 5f3d
00000350: f9ea 0b3d d5b0 a23d 2554 13bc cd61 aa3c
00000360: a99c 65bb f987 db3d 7648 173d 0ef1 57bd
00000370: 0983 83bd 22fb 4cbd 55f0 3ebd c766 683c
00000380: 7286 8bbd 2d99 f6bd caca 283d 5d49 7b3d
00000390: 7bf2 d9bd ff8b 11bd 69e1 94bd b22b 99bd
000003a0: 7c2b af3d a445 b5bd 52cd 8ebd 8bb5 98bd
000003b0: c8f0 e03c eee3 a1bd 4a69 a13d a6d5 903d
000003c0: 3e7e fd3d c90f f03d c301 9c3c 6dcb 0c3d
000003d0: 7d54 063c cc98 08bd 4b89 743d 27d4 d3bd
000003e0: 67d3 b1bd aa4a 3cbd 85ba 9a3d cdd4 26bd
000003f0: 3122 35bd d268 95bc 93b4 3c3d 95e4 113d

fc2.bias f4 [10]
-0.08979244 -0.021322282 0.07846114 0.03527336 0.063041635 0.013708096 0.05753185 -0.019473495
-0.049437024 -0.02726797
00000000: 19e5 b7bd 11ac aebc 3cb0 a03d cc7a 103d
00000010: f91b 813d ec97 603c 84a6 6b3d e186 9fbc
00000020: 7a7e 4abd 1461 dfbc
