models/model_mps_20241118_215413.pth (torch, 337352 bytes, 40 tensors)

conv1.weight f4 [8, 1, 3, 3]
0	0xbe38d463	-0.18049769
1	0xbe5e5e72	-0.21715716
2	0xbe2befe2	-0.16790727
3	0x3e645b5e	0.22300479
4	0x3d45f1b8	0.048326224
5	0x3e976438	0.29568648
6	0x3daabef8	0.08337206
7	0x3e06ddfa	0.13170615
8	0x3c811ce5	0.015760848
9	0x3e8160be	0.2526912
10	0x3db643b2	0.088996306
11	0x3e12c45f	0.14332722
12	0x3e4470e5	0.19183691
13	0x3e6eb96e	0.23312923
14	0x3ea5db11	0.32393697
15	0xbe92939d	-0.28628245
16	0xbdbefcc4	-0.09325555
17	0x3e527763	0.20553355
18	0xbae846a6	-0.001772125
19	0x3d749821	0.059715394
20	0x3ed888cd	0.4229187
21	0xbdd110c7	-0.10208278
22	0xbc7c11ab	-0.015385072
23	0xbe2dfe89	-0.16991629
24	0xbe896fc5	-0.26843086
25	0xbe0e4a72	-0.13895586
26	0xbe4a0d11	-0.19731547
27	0xbe4b7194	-0.19867545
28	0xbdbbf207	-0.091770224
29	0xbe6cbab7	-0.23118101
30	0xbe6cd5ad	-0.23128386
31	0x3d1cd20f	0.038286265
32	0xbebe0de0	-0.3711996
33	0x3e9e5fe1	0.30932525
34	0x3e8084bf	0.25101277
35	0xbdb63cde	-0.08898328
36	0xbe9bd318	-0.3043449
37	0xbe07c541	-0.1325884
38	0x3e35d7a4	0.17758042
39	0xbde99f25	-0.114073075
40	0x3cda2c5d	0.026632482
41	0x3e6b6d4e	0.22990915
42	0xbda98dc9	-0.082789965
43	0x3b952756	0.0045518083
44	0x3d9d08f2	0.07667722
45	0x3ed0c490	0.40774965
46	0xbe7ba13a	-0.24573222
47	0xbe41f975	-0.18942817
48	0x3db4714f	0.088106744
49	0x3e1ea09d	0.15490957
50	0xbe3256cb	-0.17415921
51	0x3e0430e4	0.12909275
52	0xbd86e150	-0.06585944
53	0x3e46a342	0.19398215
54	0xbda8545f	-0.082192175
55	0xbde37258	-0.11105794
56	0x3c217a20	0.009855777
57	0xbd7c59db	-0.06160913
58	0xbe8e09a0	-0.27741718
59	0xbd7d4b88	-0.06183961
60	0x3eab65cf	0.3347611
61	0xbdc8ab59	-0.09798307
62	0xbe86caf5	-0.2632672
63	0xbe43ccf1	-0.19121148
64	0x3d0c317d	0.034226883
65	0xbe5bd33d	-0.214673
66	0x3d7c463c	0.06159042
67	0xbe6ac229	-0.22925629
68	0xbe3f1182	-0.18659022
69	0xbe2d41c5	-0.1691962
70	0xbe270bfe	-0.16313168
71	0x3ed1aa6b	0.4095033

conv1.bias f4 [8]
0	0xbc5c06bf	-0.013429343
1	0xbe898ff8	-0.26867652
2	0xbe504745	-0.20339687
3	0xbe6e0b3e	-0.23246476
4	0xbe92ba24	-0.2865764
5	0x3e3d7189	0.18500341
6	0x3d478fff	0.04872131
7	0xbec21d8e	-0.37913173

conv2.weight f4 [16, 8, 3, 3]
0	0xbba97181	-0.0051710014
1	0x3ba84d92	0.0051362
2	0x3db7b422	0.089699045
3	0xbc343c9c	-0.0110007785
4	0x3e3fd163	0.18732218
5	0x3d820a94	0.06349674
6	0x3c9e630a	0.019334335
7	0xbd0bd2b6	-0.034136496
8	0xbde8241f	-0.113350146
9	0xbe14a8df	-0.14517544
10	0xbdfa065d	-0.12208245
11	0xbda24431	-0.07923163
12	0xba4e0f5a	-0.0007860564
13	0x3da7613b	0.08172842
14	0x3e1c33ef	0.15254186
15	0x3da909e3	0.08253839
16	0x3e39f2e1	0.18159057
17	0x3dd54fb2	0.10415591
18	0xbe10460c	-0.14089221
19	0xbd404212	-0.04693801
20	0xbde23c65	-0.110466756
21	0xbd707e6f	-0.058714326
22	0x3dfa298f	0.12214958
23	0x3db86695	0.09003941
24	0x3debeb09	0.11519439
25	0x3e96c9e2	0.294509
26	0x3b9d4836	0.004799868
27	0xbe5e418c	-0.21704692
28	0x3d6251a8	0.055253655
29	0x3d903a48	0.07042366
30	0x3db75add	0.08952878
31	0x3e300995	0.17191155
32	0xbcf751ae	-0.030190315
33	0x3cf67cab	0.030088743
34	0x3d38f3b6	0.045154296
35	0x3c8c915f	0.017159162
36	0x3deed56e	0.11661802
37	0xbd4d35fe	-0.05010032
38	0xbd276410	-0.04086691
39	0xbdf4e050	-0.11956847
40	0xbd87b9b7	-0.06627219
41	0xbc0e00cd	-0.008667183
42	0xbe1d2010	-0.15344262
43	0xbd99bf70	-0.07507217
44	0x3c8f8a2f	0.017521946
45	0xbc64d23c	-0.013966139
46	0x3c60a6b7	0.013711623
47	0xbdae9512	-0.08524527
48	0x3d0ff2bf	0.03514361
49	0x3cfb41e3	0.030671066
50	0xbddcb1c4	-0.107760936
51	0x3d0e726e	0.034777097
52	0xbd1b1489	-0.03786138
53	0xbc3baa92	-0.011454241
54	0xbdfeae32	-0.12435569
55	0xbe3b164c	-0.18270224
56	0xbcbf25ff	-0.023333548
57	0x3af7f9be	0.0018919033
58	0xbd7b9a44	-0.061426416
59	0x3c7773a8	0.015103258
60	0xbde32c50	-0.11092436
61	0xbdceccef	-0.10097682
62	0xbd037bfd	-0.032100666
63	0xbc8448af	-0.01614794
64	0x3dcd9a5f	0.100392096
65	0x3dba4d53	0.0909678
66	0xbd62b344	-0.055346742
67	0xbc990027	-0.01867683
68	0x3cf5a77c	0.02998709
69	0xbd859435	-0.06522409
70	0xbdf66f7e	-0.12032984
71	0x3c241a64	0.010016058
72	0xbc3f09ff	-0.011660098
73	0x3dcb0c10	0.0991441
74	0xbd17a3ee	-0.03702157
75	0x3da29334	0.07938233
76	0xbd2a1bbc	-0.041530356
77	0xbda878c2	-0.08226158
78	0x3df346d9	0.118787475
79	0xbd5fd658	-0.054647774
80	0xbe3fbc97	-0.18724285
81	0x3dd7019b	0.10498353
82	0x3c235d07	0.00997091
83	0x3de0a74a	0.10969408
84	0xbd9a2a14	-0.07527557
85	0xbd9b2028	-0.07574493
86	0x3c2b04e6	0.01043818
87	0xbd0175d5	-0.031606514
88	0xbc1336f8	-0.008985274
89	0xbe1c89f1	-0.15286995
90	0xbd88646b	-0.06659778
91	0xbdeb465e	-0.11488031
92	0x3dc716ca	0.097211435
93	0xbdee252a	-0.11628182
94	0x3c2f9967	0.010717726
95	0xbce515a9	-0.02796443
96	0xbdd3c650	-0.103405595
97	0x3ded672d	0.11591945
98	0x3d4582ab	0.048220318
99	0xbc46be3a	-0.0121303145
100	0x3d898be2	0.06716134
101	0xbe0f2cc5	-0.13981922
102	0x3d0e9f1a	0.0348197
103	0xbb300c0b	-0.0026862647
104	0xbe2b5c19	-0.16734351
105	0x3dc078c5	0.09398035
106	0xbdefb5f7	-0.11704629
107	0xbe0a1aa0	-0.13486719
108	0xbddfe497	-0.10932272
109	0xbe218577	-0.15773569
110	0x3c9b5ed2	0.018966112
111	0x3e66cc3c	0.22538847
112	0x3d2ac1ad	0.04168861
113	0xbdf57205	-0.11984638
114	0x3d584824	0.052803174
115	0x3df17d00	0.1179142
116	0x3dffc3c8	0.12488514
117	0xbb088d68	-0.0020836238
118	0x3d0e1754	0.034690216
119	0x3d867c8c	0.06566724
120	0xbd3d8f0e	-0.046279006
121	0x3e09088f	0.13382171
122	0x3d840835	0.06446878
123	0x3d2a80ee	0.041626863
124	0x3d83c784	0.06434539
125	0xbd7a5ebe	-0.06112551
126	0x3def377a	0.11680503
127	0x3e60b5d3	0.2194436
128	0x3d52751b	0.05138121
129	0xbd118f60	-0.035537124
130	0x3d8c5b27	0.068533234
131	0x3d09e7bc	0.033668265
132	0xbe2c4632	-0.16823652
133	0xbe3b7e60	-0.18309927
134	0x3cf18da9	0.029486494
135	0xbdde9d7b	-0.10869881
136	0xbe180093	-0.14843969
137	0xbbd4a368	-0.006489206
138	0x3d92eab9	0.07173676
139	0x3e1a23ae	0.15052673
140	0x3d9ae089	0.07562358
141	0x3e1a1f58	0.15051019
142	0x3d65937d	0.05604886
143	0x3e00dae2	0.12583497
144	0xbdd378ad	-0.103257515
145	0xbc532532	-0.012887286
146	0xbdaf4ad1	-0.08559192
147	0xbc32ad78	-0.010905616
148	0xbd462731	-0.04837722
149	0xbdeb3255	-0.114842094
150	0x3c161599	0.009160423
151	0xbd0d1f75	-0.034453828
152	0xbdf8766d	-0.12131963
153	0x3d804638	0.06263393
154	0xbbfeb3d7	-0.0077729034
155	0x3d2aef12	0.0417319
156	0x3b772ca8	0.0037715826
157	0xbb8fe0c0	-0.004390806
158	0xbd574e97	-0.052565183
159	0xbca9f337	-0.020745857
160	0x3c5d65ec	0.01351307
161	0xbddac126	-0.106813714
162	0x3d546c5f	0.051861163
163	0xbe10cea7	-0.14141332
164	0xbdb795f5	-0.08964149
165	0xbcec397c	-0.028836004
166	0xbe382532	-0.17982939
167	0xbdea35ef	-0.11436068
168	0xbca40679	-0.020022618
169	0x3b7ee802	0.0038895612
170	0xbdefc17a	-0.117068246
171	0xbd15119f	-0.036393758
172	0xbe05ab0a	-0.13053527
173	0xbde531aa	-0.11191113
174	0x3dab1b58	0.08354825
175	0xbe296630	-0.16542888
176	0xbdfa116c	-0.12210354
177	0x3b2a45e5	0.0025981602
178	0xbd9b4eaa	-0.07583363
179	0xbc6c2d41	-0.014415086
180	0x3c938a46	0.01801027
181	0x3de1157c	0.10990426
182	0x3d86592a	0.065599754
183	0x3e11394b	0.14182012
184	0x3e5d1080	0.21588326
185	0xbd7f62d0	-0.062350094
186	0x3e6261b2	0.2210758
187	0x3e4cec8d	0.20012112
188	0xbd019f63	-0.031646144
189	0xbd308aab	-0.043100994
190	0xbde357cd	-0.11100731
191	0x3d8e0b4b	0.06935748
192	0xbd247712	-0.040152617
193	0xbd27fd2a	-0.04101292
194	0x3e06d775	0.13168128
195	0xbda77bc2	-0.08177902
196	0xbd4a8784	-0.049445644
197	0x3debf9bb	0.11522242
198	0xbdd43f4e	-0.10363637
199	0xbe13a4b5	-0.144183
200	0xbd578a7b	-0.0526223
201	0x3959e86a	0.00020781314
202	0x3de4e009	0.11175544
203	0xbd697e6d	-0.057005335
204	0x3d89eaf0	0.06734264
205	0x3e18afdf	0.1491084
206	0x3cc1ef8a	0.023673791
207	0x3a92e34e	0.0011206658
208	0x3e1910ed	0.14947863
209	0x3c911b9f	0.017713366
210	0x3de90853	0.11378541
211	0x3c2456dd	0.010030475
212	0x3dbb6583	0.09150221
213	0x3de7004d	0.11279354
214	0x3ceafc11	0.028684648
215	0xbd28bbd9	-0.04119477
216	0xbd0ccc06	-0.03437426
217	0x3deb0a90	0.11476624
218	0x3da6bb3e	0.08141182
219	0x3e3008a4	0.17190796
220	0xbd3ea743	-0.046546232
221	0xbdf6a333	-0.120428465
222	0x3c8fdf8c	0.01756265
223	0x3cfc20f0	0.030777425
224	0x3daf2f7a	0.08553977
225	0xbcb8c95c	-0.022556953
226	0x3d8c4872	0.06849755
227	0x3e009cc7	0.12559806
228	0x3dd86145	0.10565428
229	0x3d3bbc94	0.04583414
230	0x3c5e0b9a	0.013552571
231	0xbc932442	-0.017961625
232	0xbd016f91	-0.03160054
233	0xbd9b55a8	-0.07584697
234	0x3c9112f7	0.017709238
235	0x3c70db91	0.014700786
236	0x3ddd8a2c	0.1081737
237	0x3caa80e3	0.020813411
238	0x3e686d65	0.2269798
239	0x3d997ebc	0.07494876
240	0x3d308197	0.043092337
241	0x3da83b39	0.08214421
242	0xbe5ec234	-0.2175377
243	0xbcbc3dc2	-0.022978667
244	0xbd7a42f5	-0.06109901
245	0xbd1dc6a6	-0.038519524
246	0xbd336d48	-0.04380539
247	0xbd76d6ff	-0.06026363
248	0x3d740b2c	0.059580967
249	0xbdfdd92a	-0.123949364
250	0xbe623685	-0.2209111
251	0xbdc4e652	-0.096142426
252	0xbcf81cdb	-0.030287197
253	0xbd9eaac9	-0.077474184
254	0xbe0cf543	-0.13765435
255	0xbcef1ce7	-0.029188586

conv2.bias f4 [16]
0	0x3d5e79d8	0.054315418
1	0x3d4f5c5c	0.05062519
2	0x3c9f4193	0.019440448
3	0x3d347153	0.044053387
4	0xbd2a15d3	-0.04152472
5	0x3d8abc1f	0.067741625
6	0xbde2ab55	-0.11067835
7	0xbcf39a9d	-0.029736811
8	0x3d99a090	0.07501328
9	0xbda144b1	-0.0787443
10	0x3dd4c67b	0.1038942
11	0xbde31432	-0.11087836
12	0xbd152b30	-0.03641814
13	0xbe0e06a2	-0.13869718
14	0x3dcbd8bf	0.099534504
15	0x3d8fb91c	0.07017729

fc1.weight f4 [32, 784]
0	0x3ce3ce13	0.027808225
1	0x3c998219	0.018738793
2	0xbd8a0716	-0.06739633
3	0x3d7c2e6d	0.061567713
4	0x3d35798f	0.04430538
5	0xbd148992	-0.03626401
6	0x3bb1df15	0.005428205
7	0xbdcf4207	-0.101200156
8	0x3d395d23	0.045254838
9	0x3d7e8a03	0.062143337
10	0x3da27a54	0.079334885
11	0x3cf4bdf6	0.029875737
12	0x3c832d38	0.016012773
13	0x3bcf08bb	0.0063181794
14	0x3d820a54	0.06349626
15	0x3d3dc718	0.04633245
16	0x3da68bf3	0.08132162
17	0x3deeb812	0.116562024
18	0x3e811314	0.25209868
19	0x3e0ce418	0.13758886
20	0x3e259247	0.16169082
21	0xbc97779f	-0.018489657
22	0x3e01b01d	0.12664838
23	0xbd6b42fe	-0.057436936
24	0xbe520c1c	-0.20512432
25	0x3c484073	0.012222397
26	0x3d9b00d8	0.0756852
27	0xbd52903d	-0.051407088
28	0x3d2ee205	0.042696018
29	0x3da6bf6d	0.0814198
30	0xbc922254	-0.017838635
31	0xbd314884	-0.043282047
32	0xbd653b78	-0.055964917
33	0xbdaf3cb6	-0.085565016
34	0xbde160c7	-0.11004787
35	0xbcf219f6	-0.029553395
36	0x3d7af66c	0.061270162
37	0x3d37a83b	0.04483817
38	0x3db5c116	0.08874719
39	0xbde0f193	-0.109835766
40	0xbe4de818	-0.20108068
41	0xbd7f3bd6	-0.062312923
42	0x3d07f81e	0.033195607
43	0x3deb07b7	0.11476081
44	0x3d9c7317	0.07639139
45	0x3dfa3322	0.12216784
46	0x3d937717	0.07200449
47	0x3ceb2553	0.028704321
48	0x3be62451	0.007023372
49	0xbd83ef37	-0.06442111
50	0xbae1ad37	-0.001721776
51	0xbcfe25ff	-0.031023977
52	0xbdbe3af8	-0.09288591
53	0x3c05f0f3	0.008175123
54	0xbd13d358	-0.036090225
55	0x3c13b2e7	0.009014822
56	0x3b29f95c	0.0025935983
57	0xbde7d415	-0.11319748
58	0xbd97e870	-0.07417381
59	0xbdcd56e7	-0.10026341
60	0x3d424f63	0.04743899
61	0x3dbe4b92	0.09291758
62	0xbc82b241	-0.015954139
63	0xbd9bd14e	-0.07608281
64	0xbd32ee1f	-0.04368412
65	0x3e3cb7b7	0.18429457
66	0xbd3b8509	-0.04578117
67	0xbcca4a8a	-0.024693746
68	0xbbaf9381	-0.00535816
69	0xbdc80f2f	-0.09768521
70	0xbd2d46ce	-0.042303853
71	0x3deb8e4f	0.115017526
72	0x3dac2a65	0.084065236
73	0xbd1af789	-0.037833724
74	0xbdfd9d16	-0.123834774
75	0xbd27254e	-0.04080706
76	0xbd8e776b	-0.06956371
77	0x39409fbe	0.00018370055
78	0x3e174986	0.1477414
79	0xbbdffd68	-0.0068356283
80	0xbd28dd72	-0.04122681
81	0x3cc2c621	0.023776116
82	0x3d8c911e	0.068636164
83	0x3de5db73	0.11223497
84	0xbd98f0a3	-0.07467773
85	0x3da920fa	0.08258243
86	0x3c6c01ba	0.0144047085
87	0x3d822afe	0.06355856
88	0x3d87a502	0.066232696
89	0x3d9a6a32	0.075397864
90	0x3dddedff	0.1083641
91	0xbd569c16	-0.05239495
92	0x3d008da4	0.03138508
93	0x3d9b62d6	0.07587211
94	0xbc01ef6a	-0.007930616
95	0xbd81ede4	-0.06344202
96	0xbdb79452	-0.08963837
97	0xbc66166b	-0.014043431
98	0x3d1395d5	0.036031563
99	0xbd25f3f9	-0.040515874
100	0xbd7f6f73	-0.062362146
101	0xbd3fac11	-0.046794955
102	0x3db0a7eb	0.08625778
103	0xbda3aeef	-0.0799235
104	0xbd99da67	-0.0751236
105	0xbcc0db4f	-0.023542074
106	0x3d4be0d7	0.04977497
107	0xbd5b301d	-0.05351268
108	0xbd03949c	-0.032124147
109	0xbd945a33	-0.07243767
110	0xbd87921a	-0.066196635
111	0xbae9f936	-0.001785076
112	0xbc268bf4	-0.010165203
113	0xbcff3bdb	-0.031156471
114	0xbcc1fb4f	-0.023679404
115	0xbd373d34	-0.044736102
116	0x3cb8cdad	0.022559011
117	0xbe552bc6	-0.2081748
118	0xbdf68881	-0.12037755
119	0xbded8c83	-0.11599066
120	0xbd8867df	-0.06660437
121	0x3cfb4571	0.03067276
122	0x3d28e6e8	0.041235834
123	0x3c005a64	0.007834051
124	0xbe83030d	-0.25588265
125	0xbc822d39	-0.015890704
126	0xbd54e815	-0.051979143
127	0xbdd92321	-0.106024034
128	0xbe0050df	-0.1253085
129	0xbd07d783	-0.033164512
130	0x3ce696ea	0.028148133
131	0xba366997	-0.0006958483
132	0xbe1469ed	-0.14493532
133	0xbdd37333	-0.10324707
134	0xbd6b70d3	-0.057480644
135	0xbcf12c3c	-0.029440038
136	0x3de4f3b2	0.11179294
137	0x3d6655f1	0.056234304
138	0x3e561492	0.20906284
139	0xbd8415b3	-0.06449451
140	0x3dd874fe	0.105691895
141	0x3c603949	0.013685533
142	0x3d74ab23	0.05973352
143	0x3cd208a9	0.025638895
144	0x3d16b02f	0.036789116
145	0x3d98857e	0.074473366
146	0xbd94614e	-0.07245122
147	0xbc90aa2c	-0.01765927
148	0x3cc6d1f2	0.024270032
149	0xbcbdd736	-0.02317391
150	0x3c842d00	0.016134739
151	0xbca1d0e4	-0.019752927
152	0xbda27063	-0.07931592
153	0xbc53e6c0	-0.012933433
154	0x3ce1e75d	0.027576143
155	0xbaf1de4d	-0.0018453092
156	0x3da42dcd	0.08016548
157	0x3ba4c12b	0.00502791
158	0x3d4c5d43	0.04989363
159	0x3db9096b	0.090349995
160	0xbd918996	-0.071063206
161	0xbd2255e5	-0.039632697
162	0x3c87911c	0.016548686
163	0x3bf5a132	0.0074960226
164	0x3e209b9c	0.1568436
165	0x3d8fb003	0.070159934
166	0x3d1c04fb	0.038090687
167	0x3d3527b1	0.044227306
168	0x3db48685	0.0881472
169	0x3e1b3ee7	0.15160714
170	0xbd844672	-0.06458749
171	0xbd88cde4	-0.066798955
172	0x3e15fd23	0.14647345
173	0x3d71260a	0.058874168
174	0xbda583d9	-0.080817886
175	0xbca2fd24	-0.019896097
176	0xbdf0b22f	-0.11752736
177	0xbda0bfc0	-0.078490734
178	0xbdca2656	-0.09870593
179	0xbd98a65f	-0.07453608
180	0xbce44952	-0.027866993
181	0xbe0b5293	-0.13605718
182	0xbcff3786	-0.031154405
183	0xbd88d221	-0.06680704
184	0xbd62f049	-0.055404935
185	0x3c341504	0.010991339
186	0xbd9f65ac	-0.07783064
187	0xbaef5516	-0.001825961
188	0xbc3641f7	-0.011124126
189	0x3d196c28	0.03745666
190	0xbca722e0	-0.020402372
191	0x3bfd17c6	0.0077237813
192	0x3c599f76	0.013282647
193	0x3d2a13ca	0.04152278
194	0x3c0a24a5	0.008431588
195	0x3be0c5f9	0.0068595377
196	0x3c10c7fd	0.008836743
197	0x3b401a54	0.0029312568
198	0x3d1a6461	0.037693385
199	0x3c11b2a2	0.008892687
200	0x3d40406f	0.04693645
201	0xbc1465ea	-0.009057501
202	0xbcf5fcd9	-0.030027794
203	0xbd9ecf53	-0.07754388
204	0xbc91d54b	-0.017801901
205	0x3d2dd97e	0.042443745
206	0x3d67ae9a	0.056562997
207	0x3c4ef7dd	0.012632337
208	0x3d2e5393	0.04256017
209	0xbc9cc69f	-0.019137679
210	0xbda99488	-0.08280283
211	0x3c239789	0.009984859
212	0x3e01ca9d	0.12674947
213	0x3df26c4f	0.118370645
214	0x3d7132cf	0.058886345
215	0xbd989634	-0.07450524
216	0xbd6288f2	-0.055306382
217	0xbc3a5c92	-0.01137461
218	0x3b1adf34	0.0023631575
219	0xbe5c6aeb	-0.21525161
220	0x3b4bb7a6	0.0031084805
221	0xbd3493a3	-0.04408611
222	0xbd8f66c2	-0.07002021
223	0xbd40226a	-0.04690782
224	0xbcd1230b	-0.025529405
225	0xbde9ac7b	-0.11409851
226	0xbdd1e028	-0.102478325
227	0xbd51a356	-0.05118116
228	0x3cc793d8	0.02436249
229	0x3c76e2f8	0.015068762
230	0x3ddb62cb	0.10712203
231	0xbe195957	-0.14975487
232	0x3b225473	0.0024769574
233	0xbc3842a6	-0.011246359
234	0xbcef187f	-0.029186485
235	0xbd85d4b3	-0.0653471
236	0xbd9c7bca	-0.076407984
237	0x3ccf8d1a	0.025335837
238	0x3b66b890	0.0035205223
239	0xbd915d60	-0.07097888
240	0xbd128c06	-0.035778068
241	0x3c8ae985	0.016957054
242	0xbcfeae8c	-0.03108909
243	0xbda899fe	-0.08232497
244	0xbd161996	-0.036645494
245	0xbe08a68d	-0.13344784
246	0xbb4d0de3	-0.0031288795
247	0xbe06f069	-0.13177647
248	0x3d128e03	0.035779964
249	0x3d0f4db2	0.034986205
250	0xbc92b613	-0.017909085
251	0xbdbf8292	-0.09351076
252	0xbdfc68db	-0.12324687
253	0x3e0b8681	0.13625528
254	0x3d96f077	0.07370084
255	0xbe187053	-0.14886598

fc1.bias f4 [32]
0	0xbce7b8a1	-0.02828628
1	0xbcb5d371	-0.02219555
2	0xbd048665	-0.03235473
3	0xbcbe4964	-0.023228355
4	0xbd4db045	-0.05021693
5	0xbbba817f	-0.0056917067
6	0x3c2bd047	0.010486669
7	0xbceab550	-0.02865091
8	0xbd764424	-0.060123578
9	0xbb8a29da	-0.004216415
10	0x3d1bced8	0.03803906
11	0xbd81405c	-0.06311104
12	0xbd0905f6	-0.03345295
13	0x3d6b0bae	0.057384185
14	0xbd303dfd	-0.043027867
15	0xbd3fa3fd	-0.04678725
16	0xbc910ce7	-0.017706348
17	0x3d47df41	0.048796896
18	0x3b8b4e8d	0.0042513073
19	0x3dbdbc7d	0.09264467
20	0x3dc51e42	0.09624912
21	0xbd5cec7e	-0.053936474
22	0xbc8f11ac	-0.017464481
23	0x3c63de08	0.013907917
24	0x3db17151	0.086641915
25	0x3d4f3690	0.050589144
26	0x3bd74db8	0.006570544
27	0x3c9aa701	0.018878462
28	0xbc44af5a	-0.012004698
29	0xbd840da6	-0.06447916
30	0x3b0b5c86	0.0021264865
31	0xbd45945a	-0.048237182

fc2.weight f4 [10, 32]
0	0xbe9a3c08	-0.30123925
1	0x3d3adc5e	0.045620315
2	0x3dcf072f	0.10108792
3	0xbc940cd5	-0.018072525
4	0xbe9901e8	-0.29884267
5	0xbe446964	-0.19180828
6	0xbd381263	-0.04493941
7	0xbd22409a	-0.03961239
8	0xbe3c058f	-0.18361495
9	0xbe151850	-0.14560056
10	0x3e75061d	0.23928113
11	0xbe5661d7	-0.2093576
12	0xbebb5e12	-0.36595207
13	0xbebdf6ac	-0.37102258
14	0xbecdc69d	-0.40190592
15	0xbeb2be5c	-0.34910858
16	0xbe39f9b3	-0.18161659
17	0x3e8c20d7	0.27368805
18	0x3e865019	0.26232985
19	0x3e754e7b	0.23955719
20	0xbe6c6827	-0.23086606
21	0xbe383d86	-0.1799222
22	0xbe84f3bf	-0.25967214
23	0x3e2c07b5	0.16799815
24	0xbec0aafc	-0.3763045
25	0x3df13523	0.11777713
26	0xbe8e7e80	-0.27830887
27	0x3cd91a14	0.026501693
28	0x3da6fac2	0.08153297
29	0x3d4a3072	0.049362607
30	0xbdadaf95	-0.08480755
31	0x3e6e45a0	0.23268747
32	0xbe8c88c9	-0.2744811
33	0x3e10a9a7	0.14127217
34	0xbdd242cc	-0.10266647
35	0xbd939fdb	-0.072082244
36	0x3dd6bc35	0.104851164
37	0x3d9ec1d7	0.07751816
38	0xbce94307	-0.028474344
39	0xbbcacdb9	-0.006189075
40	0xbed69f25	-0.41918293
41	0xbd0a7393	-0.033801626
42	0xbda52ae8	-0.08064824
43	0x3e30d89e	0.17270133
44	0xbe988b8e	-0.29793972
45	0x3e601dfa	0.21886435
46	0xbe531f1c	-0.20617336
47	0xbe0f1c77	-0.13975702
48	0xbdfff890	-0.124985814
49	0x3e9603fc	0.29299915
50	0xbed2550c	-0.4108051
51	0x3e3d3eb9	0.18480958
52	0x3e37b581	0.17940332
53	0xbe03c514	-0.12868148
54	0x3e26e11e	0.16296813
55	0xbe2dec57	-0.16984688
56	0x3eb656a8	0.35612988
57	0xbe8ab9e1	-0.2709494
58	0x3e340e17	0.175835
59	0xbe08495b	-0.13309233
60	0x3d4ed90d	0.050499965
61	0xbeee279d	-0.46514598
62	0x3aa433f4	0.001252769
63	0xbeb40fd9	-0.3516834
64	0xbe4f25de	-0.20229289
65	0xbd817fa0	-0.06323171
66	0x3c60f59a	0.013730431
67	0xbe0ece3c	-0.1394586
68	0xbe9395d5	-0.2882525
69	0x3e5c3605	0.21504982
70	0x3e2f264c	0.17104453
71	0x3de0ccf5	0.109765925
72	0xbcf0afbd	-0.029380674
73	0xbe071fd0	-0.1319573
74	0x3e8b3b06	0.2719347
75	0x3e1c5f2b	0.15270679
76	0xbeb066cd	-0.3445343
77	0x3e5b76c2	0.21432021
78	0xbe4e60a2	-0.2015405
79	0x3e0cc3d5	0.13746579
80	0xbdc6356d	-0.09678159
81	0xbe8055f3	-0.25065574
82	0x3e560631	0.209008
83	0xbe3f3343	-0.18671899
84	0x3e32a64a	0.17446247
85	0xbe2749d4	-0.16336757
86	0xbd056126	-0.03256335
87	0x3dd1b943	0.10240414
88	0xbdc55aac	-0.09636435
89	0xbe838581	-0.25687793
90	0xbe89aff7	-0.26892063
91	0xbd166ec2	-0.03672672
92	0x3d695b3d	0.056971777
93	0x3d90c269	0.07068331
94	0x3e26df86	0.16296205
95	0x3dc4042b	0.095711075
96	0x3e5e0bda	0.21684209
97	0x3d910fc9	0.07083089
98	0xbd7d2f37	-0.061812606
99	0xbd9f4d9e	-0.07778476
100	0xbe8ebf9f	-0.2788057
101	0x3e582715	0.21108659
102	0x3e2bd49d	0.16780324
103	0xbd39b3d1	-0.045337502
104	0xbc93d83e	-0.018047448
105	0xbd6e5455	-0.058185894
106	0xbe18773c	-0.14889234
107	0x3d9a08c6	0.07521205
108	0x3e6efe2e	0.2333915
109	0x3e4383e7	0.19093286
110	0xbe45ab9d	-0.19303747
111	0x3e3d8d78	0.18510997
112	0xbd960ff1	-0.07327259
113	0xbeb4a281	-0.3528023
114	0xbcf195db	-0.029490402
115	0xbe593e41	-0.21215154
116	0x3e15a4f3	0.14613704
117	0xbeb464f4	-0.3523327
118	0xbe9d5f59	-0.30736807
119	0xbec3a826	-0.38214225
120	0xbe495b5d	-0.19663759
121	0x3da55ad3	0.08073964
122	0x3de417f8	0.11137384
123	0xbe0af0d5	-0.13568433
124	0xbd824a5d	-0.0636184
125	0xbe52e49f	-0.20595025
126	0xbd52f908	-0.051507026
127	0x3e3b0880	0.18264961
128	0xbea04116	-0.31299657
129	0xbd79ee0e	-0.061018042
130	0xbdae17a7	-0.08500605
131	0xbdb06e19	-0.086147495
132	0x3e2fd7e9	0.17172207
133	0xbea60f70	-0.32433653
134	0x3cffa40f	0.031206159
135	0xbb55b212	-0.003260736
136	0x3de223ef	0.1104201
137	0xbdf53698	-0.119733036
138	0x3e0ccb9e	0.13749549
139	0x3e38ecfb	0.18059151
140	0xbe889566	-0.26676482
141	0xbe099fb2	-0.13439825
142	0x3e2f6159	0.17126979
143	0x3e484a4c	0.19559592
144	0xbd80f75a	-0.062971786
145	0xbe98fc0c	-0.29879797
146	0xbec24290	-0.37941408
147	0x3e35923f	0.1773157
148	0xbe7e9194	-0.24860221
149	0x3e5e0e5f	0.2168517
150	0xbe099e82	-0.13439372
151	0x3e0e152e	0.13875267
152	0xbe52fa32	-0.20603254
153	0xbeca0d35	-0.394632
154	0x3e440687	0.19143115
155	0xbe1246f0	-0.14284873
156	0x3c91ba02	0.01778889
157	0xbe902668	-0.28154302
158	0xbb541121	-0.0032358842
159	0xbeb172fd	-0.34658042
160	0x3e691198	0.22760618
161	0xbdc3a721	-0.09553362
162	0xbda50115	-0.08056847
163	0x3c9923df	0.018693862
164	0x3cd68f11	0.026191266
165	0xbe5e272a	-0.21694627
166	0xbbf2a5da	-0.007405025
167	0x3cb7fc66	0.02245922
168	0x3dba14a0	0.09085965
169	0x3e191713	0.14950208
170	0xbd4ac040	-0.04949975
171	0xbed33756	-0.41253155
172	0x3e83c3e8	0.25735402
173	0xbe44f448	-0.19233811
174	0x3dc4bf7e	0.09606837
175	0x3e1bbc6d	0.15208597
176	0x3de2e67f	0.1107912
177	0xbd9b9482	-0.07596685
178	0xbd40b493	-0.04704721
179	0x3de17643	0.11008885
180	0xbeecf7dd	-0.46282855
181	0xbe8c9b46	-0.27462214
182	0x3daf2c32	0.085533515
183	0xbea9883d	-0.33111754
184	0x3eb942fb	0.36183915
185	0x3dac0d5e	0.08400987
186	0xbdf5be03	-0.119991325
187	0xbd76dbc6	-0.060268186
188	0xbda5d5d5	-0.08097426
189	0x3dda73ae	0.106665954
190	0xbe304e50	-0.17217374
191	0x3e209832	0.15683058
192	0xbec86a3e	-0.39143556
193	0xbe0b2065	-0.13586576
194	0x3d487887	0.04894307
195	0x3dfe0a07	0.12404256
196	0x3e53b615	0.20674928
197	0xbec1f97e	-0.3788566
198	0xbd3a43fb	-0.045474987
199	0x3de5974a	0.11210497
200	0xbe7919f7	-0.24326311
201	0xbdbdbd32	-0.09264602
202	0xbe872f33	-0.26403198
203	0xbedaa114	-0.42701018
204	0xbe714c6f	-0.23564313
205	0x3e4141ff	0.18872832
206	0xbed03215	-0.4066321
207	0x3e32dd4a	0.17467228
208	0xbbc0b2b1	-0.0058806767
209	0xbdfccb3c	-0.123434514
210	0x3e1dd6f7	0.15414034
211	0x3e68eae6	0.22745857
212	0xbf068d11	-0.52559
213	0x3e2992e1	0.16559936
214	0x3e5f7d53	0.21825151
215	0x3dbd9b61	0.09258152
216	0xbdd49d55	-0.10381571
217	0x3de09c55	0.10967318
218	0xbec0f7fc	-0.37689197
219	0x3e1e8142	0.15478995
220	0x3e2da0d9	0.1695589
221	0x3e3be414	0.18348724
222	0xbd9895fd	-0.07450483
223	0xbd89383b	-0.06700178
224	0x3e40051b	0.18751948
225	0x3cedfbc5	0.029050717
226	0x3ceb8cc6	0.02875365
227	0x3dff81c0	0.1247592
228	0xbe1eaf8c	-0.15496653
229	0x3e02900f	0.12750266
230	0x3db68c95	0.08913533
231	0xbc7cf2fe	-0.015438793
232	0xbec1b9a9	-0.3783696
233	0xbdda0b32	-0.106466666
234	0x3e5bc395	0.21461327
235	0x3be3d286	0.0069525866
236	0x3e12cfa2	0.14337018
237	0x3e30ad49	0.17253603
238	0x3e241443	0.16023354
239	0xbde67b4b	-0.11253985
240	0xbe2fcd3f	-0.17168139
241	0x3e33f478	0.17573726
242	0x3e2608f5	0.16214354
243	0xbed8bcf0	-0.42331648
244	0x3e1ca9f5	0.15299208
245	0x3e4c0135	0.19922335
246	0xbee3f348	-0.44521546
247	0x3d1e5857	0.038658466
248	0xbe45d588	-0.19319737
249	0xbee7345b	-0.45157132
250	0x3e215bf0	0.15757728
251	0x3d21cfcf	0.039504822
252	0xbdf1088b	-0.117692076
253	0xbeda2e01	-0.42613223
254	0x3d5d3f6e	0.05401557
255	0xbe3bb2e8	-0.18329966

fc2.bias f4 [10]
0	0x3e577a45	0.21042736
1	0x3ec9b174	0.39393198
2	0xbde322ae	-0.11090599
3	0xbdd7cef2	-0.105375186
4	0xbdba781a	-0.09104939
5	0xbbc7510a	-0.0060826587
6	0xbdbede90	-0.09319794
7	0xbe404423	-0.18775992
8	0xbe0d191e	-0.13779113
9	0x3e6028a4	0.21890503

batch_norm1.weight f4 [8]
0	0x3f5f05f0	0.87118435
1	0x3f545f66	0.82958066
2	0x3f84b7e4	1.0368619
3	0x3f924257	1.1426495
4	0x3f7cb2ab	0.98710126
5	0x3f574609	0.8409124
6	0x3f9d19b2	1.2273467
7	0x3f9ebdb8	1.2401648

batch_norm1.bias f4 [8]
0	0xbd3863e0	-0.045017123
1	0xbead3862	-0.3383208
2	0xbe24c01a	-0.16088906
3	0xbe885b92	-0.26632363
4	0xbd3a2ac5	-0.045450944
5	0xbe753461	-0.23945762
6	0xbe624d41	-0.22099783
7	0xbe8e99fa	-0.2785185

batch_norm1.running_mean f4 [8]
0	0xbc55a11f	-0.013038903
1	0xbe7e2db0	-0.24822116
2	0xbe564d87	-0.20928012
3	0xbe7cf30e	-0.24702093
4	0xbe935d3c	-0.2878207
5	0x3e4ab961	0.19797279
6	0x3d3a67c4	0.045509115
7	0xbec6995a	-0.38788873

batch_norm1.running_var f4 [8]
0	0x3e465b9a	0.1937088
1	0x3f616b81	0.8805466
2	0x3ea894c4	0.32926
3	0x3ee64f6e	0.44982475
4	0x3e656ed9	0.22405566
5	0x3e469dce	0.19396135
6	0x3eaa6053	0.33276615
7	0x3ed7540e	0.42056316

batch_norm2.weight f4 [16]
0	0x3fad5a60	1.3543205
1	0x3fb120e2	1.383816
2	0x3fb0ce6d	1.3812996
3	0x3fa146ca	1.2599728
4	0x3fa11f36	1.258765
5	0x3fbbb5fc	1.4664912
6	0x3f9f8aeb	1.2464269
7	0x3fb538f8	1.415801
8	0x3faeeb15	1.3665491
9	0x3fb61235	1.4224306
10	0x3fa38dd6	1.277766
11	0x3fbf741c	1.4957309
12	0x3fac3f02	1.3456728
13	0x3faf6a02	1.3704226
14	0x3fb4af4f	1.4116
15	0x3fa8b643	1.3180622

batch_norm2.bias f4 [16]
0	0xbda1e1fd	-0.07904432
1	0xbdc11966	-0.094286725
2	0xbde67601	-0.11252976
3	0xbe76ec7a	-0.24113646
4	0xbec0c697	-0.37651512
5	0xbe867938	-0.26264358
6	0xbe88a47d	-0.26687995
7	0xbe6d8d0b	-0.23198335
8	0xbd8bb99f	-0.06822514
9	0xbdb34de5	-0.087550916
10	0xbda3aad6	-0.07991569
11	0xbe65f9a8	-0.22458518
12	0xbdc91ad6	-0.09819572
13	0xbd89d869	-0.0673073
14	0xbe6a8861	-0.22903587
15	0xbe916d71	-0.2840381

batch_norm2.running_mean f4 [16]
0	0xbc70d10e	-0.01469828
1	0x3e1c3c9c	0.15257496
2	0xbdf3da4f	-0.119068734
3	0xbe1f0d2c	-0.15532368
4	0xbdfeaae5	-0.12434939
5	0xbd0944d8	-0.03351292
6	0x3dd360fe	0.10321234
7	0x3ebda903	0.37043008
8	0xbdc1c296	-0.094609424
9	0xbc854468	-0.01626797
10	0x3e2cb479	0.1686572
11	0x3e7e0fa1	0.2481065
12	0xbdeea8fa	-0.116533235
13	0x3db1021e	0.08642982
14	0x3ddf8408	0.10913855
15	0x3e1b368f	0.15157531

batch_norm2.running_var f4 [16]
0	0x3ed8c404	0.42337048
1	0x3e19024c	0.14942282
2	0x3f0d349d	0.55158406
3	0x3e861faa	0.26196033
4	0x3e140300	0.1445427
5	0x3e6c2ebd	0.23064704
6	0x3e517702	0.20455554
7	0x3ec2e7fa	0.3806761
8	0x3e8124bc	0.2522334
9	0x3e7dd9cc	0.24790114
10	0x3e71853a	0.23585978
11	0x3e8ce347	0.2751715
12	0x3e54ce1e	0.20781752
13	0x3e3f51cd	0.18683548
14	0x3ea28f03	0.31749734
15	0x3eeec6fc	0.46636188

exp_avg f4 [8, 1, 3, 3]
0	0x3c987490	0.018610269
1	0x3c76504b	0.015033792
2	0x3c0c3550	0.008557633
3	0x3cb1e769	0.02171679
4	0x3c39d67a	0.011342639
5	0x3b1f991a	0.002435273
6	0x3c79fd8a	0.015258202
7	0x3ae4313e	0.0017409695
8	0x3c730363	0.01483235
9	0x3a9d6e55	0.0012011031
10	0xbb8a9b08	-0.004229907
11	0xbb86bb65	-0.0041116946
12	0xba2e1a94	-0.00066415337
13	0xb9f76784	-0.00047188636
14	0x3a9fa4df	0.0012179873
15	0xbad115f1	-0.0015951974
16	0xbb94e76a	-0.0045441883
17	0xbb097644	-0.0020975033
18	0xbc4a4f42	-0.012347998
19	0xbc388bd8	-0.01126381
20	0x3bd7bc14	0.0065837
21	0xbc0419e0	-0.00806281
22	0xbc0bd515	-0.008534689
23	0x3bd62b6a	0.006535937
24	0xbb4544f5	-0.0030100916
25	0x3b1433c6	0.0022613867
26	0x3c5aacb3	0.013346839
27	0x3ccbbb98	0.024869725
28	0x3ccd7e06	0.025084507
29	0x3c8f10a7	0.017463995
30	0x3d1657a8	0.03670469
31	0x3ced43ae	0.028962936
32	0x3ca0afa3	0.019615
33	0x3d50304a	0.050827302
34	0x3d351df9	0.044218037
35	0x3ca25390	0.019815236
36	0xbc654f54	-0.013995964
37	0xbc332546	-0.01093418
38	0xbc9ffb65	-0.019529054
39	0xbc4e357e	-0.012585996
40	0xbbefb6c8	-0.0073154904
41	0xbc83295b	-0.01601093
42	0xbc1d9428	-0.009617843
43	0xbbbe0a26	-0.0057995496
44	0xbc13a52b	-0.009011547
45	0x3b56a68e	0.0032753083
46	0x3b8a4014	0.0042190645
47	0x3c21f380	0.009884715
48	0x3c1aeaeb	0.009455423
49	0x3c4df034	0.012569476
50	0x3c8ab94f	0.016934065
51	0x3c6ea1f4	0.01456498
52	0x3c42002f	0.011840864
53	0x3a94faf6	0.0011366296
54	0xbbc28341	-0.005936057
55	0x3c11f338	0.0089080855
56	0x3c60743a	0.013699586
57	0x3b945af6	0.004527445
58	0x3c29b979	0.0103591615
59	0x3c88030d	0.016603017
60	0x3cd9778a	0.026546258
61	0x3c3f3da8	0.011672415
62	0x3c5f72ac	0.01363818
63	0x3c06f1d2	0.008236365
64	0x3c0ba5d4	0.008523423
65	0x3ca79575	0.020457009
66	0x3c3c7c2d	0.011504215
67	0x3c9a4b2c	0.018834673
68	0x3ce02355	0.027360598
69	0x3b349db5	0.002755982
70	0x3cb859c3	0.02250374
71	0x3d355e60	0.044279456

exp_avg_sq f4 [8, 1, 3, 3]
0	0x3b5b1e82	0.0033434932
1	0x3b3aea0d	0.0028520853
2	0x3b8120dd	0.003940685
3	0x3b618d9f	0.0034416688
4	0x3b1ae3e8	0.0023634378
5	0x3b40c7bf	0.0029415933
6	0x3b20c43f	0.0024531034
7	0x3ad5dcc0	0.0016316399
8	0x3b1bc11d	0.0023766228
9	0x39e5c803	0.00043827304
10	0x399803d2	0.00028994546
11	0x399a2695	0.00029401915
12	0x39ee91a8	0.0004550342
13	0x398bdbe2	0.00026675971
14	0x3985a02b	0.0002548707
15	0x3a2daf1c	0.00066255196
16	0x3a13020c	0.000560791
17	0x3a0a1359	0.0005267165
18	0x3c536349	0.012902089
19	0x3c528e04	0.012851242
20	0x3c837a5e	0.01604956
21	0x3c111dc2	0.0088571925
22	0x3be7f198	0.0070783608
23	0x3c09014c	0.008362126
24	0x3b6f833e	0.0036546732
25	0x3b5e9655	0.0033964117
26	0x3ba499d2	0.0050232196
27	0x3b30ff64	0.0027007693
28	0x3b10fcf1	0.002212342
29	0x3ac7df50	0.0015249047
30	0x3ba8c617	0.0051505673
31	0x3b68d241	0.0035525712
32	0x3b24b808	0.0025134105
33	0x3c423cd9	0.0118553275
34	0x3c20813d	0.009796438
35	0x3be5338f	0.0069946717
36	0x3b97c536	0.0046316637
37	0x3bd4de24	0.006496208
38	0x3c0d4527	0.008622444
39	0x3bdfa032	0.0068245167
40	0x3c1e6b2a	0.009669105
41	0x3c1e379e	0.009656815
42	0x3c38d97f	0.011282324
43	0x3c4b17ea	0.012395838
44	0x3c361321	0.011112959
45	0x3b772403	0.0037710674
46	0x3bcd94f1	0.0062738587
47	0x3befa25d	0.0073130564
48	0x3b42f567	0.0029748322
49	0x3bc8dbaa	0.0061297016
50	0x3bfaf03c	0.0076580327
51	0x3b9960d8	0.004680734
52	0x3bdb88d4	0.006699661
53	0x3c1b25c4	0.009469453
54	0x3ba42438	0.0050092004
55	0x3aeee8fb	0.0018227393
56	0x3aeb7479	0.0017963789
57	0x3bc87c42	0.0061183283
58	0x3ac63611	0.0015122314
59	0x3aad8cfd	0.001324087
60	0x3c28a3ed	0.010292989
61	0x3b86bb24	0.0041116644
62	0x3af64be2	0.0018790925
63	0x3ae97a95	0.0017813022
64	0x3aece69f	0.0018074102
65	0x3b1b20f8	0.0023670774
66	0x3b0934f6	0.0020936108
67	0x3ae54603	0.0017492179
68	0x3b9fdb48	0.0048784353
69	0x3b400695	0.0029300798
70	0x3ba905d4	0.0051581655
71	0x3c60038b	0.01367272

exp_avg f4 [8]
0	0xb0ffaad1	-1.8602241e-09
1	0xb0dabe06	-1.5915596e-09
2	0x31fb849e	7.3201383e-09
3	0x31669c73	3.3558336e-09
4	0x329b52b1	1.8081979e-08
5	0x31c47fa0	5.71886e-09
6	0x32a02030	1.8641089e-08
7	0xb19da716	-4.588297e-09

exp_avg_sq f4 [8]
0	0x266473b6	7.926021e-16
1	0x2537855d	1.5917905e-16
2	0x26f08f2b	1.6692151e-15
3	0x26a7e385	1.1649622e-15
4	0x272d9681	2.4090161e-15
5	0x26b6ee28	1.2693339e-15
6	0x27232585	2.2641134e-15
7	0x272361f7	2.26739e-15

exp_avg f4 [16, 8, 3, 3]
0	0x3ba5b475	0.0050569125
1	0x3ba5cc52	0.0050597573
2	0x3be814dd	0.007082565
3	0xbb98964b	-0.004656588
4	0xba11799b	-0.00055494317
5	0x3a4971cd	0.0007684499
6	0x3ad51f49	0.0016259934
7	0x3b127741	0.0022348913
8	0x3b75017e	0.0037384923
9	0x3b8dee1c	0.0043313634
10	0x3bc443cc	0.0059895273
11	0x3bb13b6e	0.005408696
12	0x3b8a6f30	0.0042246804
13	0x3bddb07d	0.006765424
14	0x3bf98150	0.007614292
15	0x3b226f17	0.0024785453
16	0x3b43bc68	0.0029866938
17	0x3bb0a334	0.005390549
18	0x39faae0c	0.0004781339
19	0x3a145822	0.0005658885
20	0xb9ee881f	-0.00045496316
21	0x3b2d1014	0.0026407288
22	0x3b0428ac	0.0020165844
23	0x3b1e4b1b	0.0024153653
24	0xba49a133	-0.0007691562
25	0x399d2808	0.000299752
26	0x3aaa966a	0.0013014798
27	0x3a830861	0.0009997004
28	0xbaa2feb5	-0.0012435528
29	0x3afe615c	0.0019407677
30	0xbaf447c6	-0.0018637113
31	0xba8e4e92	-0.0010857156
32	0x3aa05cf6	0.0012234736
33	0x3ad97272	0.0016589893
34	0x3ab3dafc	0.0013721879
35	0x3a18f80d	0.0005835302
36	0x3b7109f1	0.0036779607
37	0x3b16720e	0.0022956165
38	0x3aa3ffd6	0.0012512158
39	0x3aa4b13e	0.0012565029
40	0x3b022abd	0.00198619
41	0x3b071c16	0.0020616106
42	0x3b0df4ed	0.002166088
43	0x3bc0bc96	0.005881856
44	0x3b61ac82	0.0034435098
45	0xba8fd834	-0.0010974468
46	0x3b79c105	0.0038109433
47	0x3bce4e3e	0.0062959483
48	0x3a1ebbd6	0.00060552114
49	0x3adb0a54	0.0016711452
50	0x3bbc306b	0.0057430766
51	0x3b9389cc	0.0045025107
52	0x3b98b60b	0.004660373
53	0x3bdce6ae	0.0067413663
54	0xb9b6627e	-0.00034787128
55	0xb9ef38f6	-0.00045628072
56	0x3aa1c631	0.0012342391
57	0x3b1f8d64	0.002434575
58	0x3a512dc1	0.0007979535
59	0x3a2e299e	0.00066437747
60	0x380d1b25	3.36423e-05
61	0x3ab2c1b3	0.0013638049
62	0x3a1d6ed1	0.00060055876
63	0xbaa10afd	-0.00122866
64	0xba56ceb9	-0.0008194256
65	0x35ca7a80	1.5085825e-06
66	0xbb598874	-0.0033192905
67	0xb9ca416c	-0.00038577185
68	0xbaa9489a	-0.0012915314
69	0xb9f3c2dd	-0.00046493756
70	0xba670217	-0.0008812262
71	0xb9d07a4d	-0.00039763973
72	0x3bc910d9	0.0061360416
73	0x3b81a2c2	0.00395617
74	0xba8e7404	-0.0010868316
75	0xbad96c2f	-0.0016588027
76	0x3b24bdd0	0.002513755
77	0x399c8d40	0.00029859878
78	0xbab116c6	-0.0013510815
79	0x3b9644b4	0.004585827
80	0x3c2e69ce	0.010645343
81	0xbb93ef8d	-0.0045146407
82	0xbbc15928	-0.005900521
83	0xba64ae94	-0.0008723524
84	0x3b780814	0.0037846612
85	0xbbfd4fcf	-0.007730461
86	0xbb11380d	-0.0022158653
87	0x3ae019e5	0.0017097561
88	0x3b15d520	0.0022862628
89	0x3b855c56	0.004069845
90	0xbb9b83ac	-0.004745921
91	0xbb0858b8	-0.0020804834
92	0xbaf47ece	-0.0018653513
93	0xbae9522b	-0.0017800977
94	0xbb92cd9a	-0.004480076
95	0x39a37b36	0.00031181582
96	0xbae192ea	-0.0017209921
97	0xbb6f5939	-0.0036521687
98	0xbae1ca0a	-0.001722635
99	0x3b2d2df8	0.0026425105
100	0x3b138e0e	0.002251509
101	0xbb5ce10b	-0.0033703472
102	0xbb3aca93	-0.0028502091
103	0x3bc1457b	0.0058981753
104	0x3b943097	0.004522394
105	0xbb898ce7	-0.004197705
106	0xb99f1906	-0.00030345487
107	0x3b09ab30	0.0021006577
108	0xbb1e54be	-0.0024159397
109	0x3b791bc4	0.0038010934
110	0xba280e2a	-0.0006410802
111	0xbb2eeb85	-0.0026690674
112	0xbb5a1f44	-0.0033282796
113	0x3b80a43b	0.003925828
114	0x3b8b33b6	0.004248108
115	0xba94c4fa	-0.0011350207
116	0x3c44e4b4	0.012017418
117	0xba0257d4	-0.0004972194
118	0xbc429beb	-0.011877994
119	0xbb08f917	-0.0020900422
120	0xbad2958d	-0.0016066298
121	0x3bde98c2	0.0067931125
122	0xbbc93790	-0.006140657
123	0xbb89c38a	-0.0042042183
124	0x3bf2467c	0.0073936563
125	0xba1a3fa1	-0.0005884115
126	0xbaccc157	-0.0015621585
127	0x3b0b3fd1	0.0021247754
128	0xbbad9183	-0.0052968874
129	0xbbb24e22	-0.005441443
130	0x3bcbcb64	0.0062193144
131	0x3a31d64c	0.0006783947
132	0xbba511f2	-0.0050375396
133	0xbb198b0d	-0.0023428828
134	0xbb763bbe	-0.003757223
135	0x3bc3dc58	0.0059771948
136	0x3b1beb18	0.002379125
137	0x3b43feec	0.0029906584
138	0x3ac8205a	0.001526843
139	0x3b3ad661	0.0028509127
140	0x3b67def4	0.0035380693
141	0x3ae0b28a	0.0017143053
142	0xba6957b9	-0.00089013163
143	0x3c058e88	0.008151658
144	0x3951deb4	0.00020014757
145	0x3adde418	0.0016928939
146	0x3b5cb7fb	0.0033678997
147	0x3997e774	0.0002897341
148	0x3b0b25f1	0.0021232332
149	0x39f5ea75	0.00046904726
150	0x3accd293	0.0015626721
151	0xb93c876f	-0.0001797953
152	0xbb31610f	-0.0027065908
153	0xbb641160	-0.0034800395
154	0xbb07f675	-0.0020746265
155	0x3b01b713	0.0019792959
156	0xb9ec05af	-0.00045017662
157	0xba1b7c84	-0.0005931335
158	0x3b0c0bac	0.0021369262
159	0x3a1cb412	0.00059777603
160	0xbb442ef8	-0.0029935222
161	0xb9bb494f	-0.0003572204
162	0xbb2f6cb5	-0.0026767675
163	0x38ad970a	8.277416e-05
164	0xba2261e3	-0.0006194396
165	0xbad081b7	-0.0015907799
166	0x3adca745	0.0016834518
167	0x3a9d2278	0.0011988422
168	0xbac10078	-0.0014724871
169	0x3a682884	0.0008856135
170	0x3b6feb3a	0.0036608712
171	0x3a94264e	0.001130292
172	0xb9aa8d2f	-0.00032530117
173	0xba27d588	-0.0006402363
174	0x3a1f21b2	0.00060703896
175	0x3a3f469f	0.0007296595
176	0xba69c682	-0.00089178246
177	0x3b0f2554	0.0021842318
178	0x3b0c339c	0.0021393066
179	0xb9946446	-0.0002830347
180	0xbaf88995	-0.0018961901
181	0x3b0d830f	0.002159301
182	0x3badd93e	0.0053054383
183	0xba4649dc	-0.00075641065
184	0xb9d5fc4d	-0.00040814505
185	0x3b44888d	0.0029988617
186	0x3b1e53af	0.0024158766
187	0xbb478f0d	-0.0030450255
188	0x3b3d5497	0.002888953
189	0xba5e492e	-0.00084795326
190	0xbb4157a6	-0.0029501705
191	0xbb03ee6e	-0.002013113
192	0xb9d3c01b	-0.00040388186
193	0xba4199b6	-0.00073852704
194	0xbab0a9b6	-0.0013478312
195	0x3a5721c6	0.0008206632
196	0x3ad74b42	0.0016425627
197	0xbb896ee2	-0.0041941265
198	0x3ab65f28	0.0013913857
199	0x391afed6	0.00014781518
200	0xbad47922	-0.0016210417
201	0x3a192b69	0.00058429554
202	0x3acd2220	0.0015650429
203	0xbb19a085	-0.0023441624
204	0x38c37766	9.320564e-05
205	0x3b61556d	0.0034383193
206	0xb9985615	-0.00029055835
207	0xb95bbeb4	-0.0002095651
208	0x3b3d08de	0.0028844397
209	0x3a9b0b54	0.0011828938
210	0x3ad0e8fd	0.0015938577
211	0x3a8a35f0	0.0010544639
212	0x3a437250	0.00074556936
213	0x3a2e3782	0.00066458446
214	0x3acc1abf	0.0015571936
215	0x3a809b4e	0.0009811909
216	0xbbb4e1f5	-0.0055201002
217	0x3a7fcacf	0.0009757699
218	0x35176000	5.639158e-07
219	0x3aa8eadd	0.0012887378
220	0x3b807eeb	0.00392138
221	0x3b1d5542	0.0024007116
222	0x3a47b111	0.00076176325
223	0x3a981b02	0.0011604729
224	0x3bc73d18	0.006080281
225	0x3b23e77a	0.0025009797
226	0x3ad1298e	0.0015957819
227	0xba3406d7	-0.00068674743
228	0x3b0231ef	0.0019866189
229	0x3baffc54	0.005370656
230	0x3b891494	0.0041833613
231	0x3aa95096	0.0012917693
232	0x3bb20e27	0.005433816
233	0x3b8518d0	0.004061796
234	0xba764a5e	-0.0009395237
235	0xbb4174fc	-0.002951919
236	0xbbb839a4	-0.0056221057
237	0x3b1cb782	0.002391309
238	0x3a83c72c	0.0010053865
239	0xbaee21ba	-0.001816801
240	0x3b71bba0	0.0036885515
241	0x3ac6f3bf	0.0015178843
242	0xb8435148	-4.6567322e-05
243	0x39fe6851	0.00048524377
244	0x3b3cbbac	0.0028798385
245	0x3b92743d	0.004469423
246	0x3a3b1a91	0.00071374426
247	0x39dda0f3	0.0004227232
248	0x3a6e8dcc	0.0009100109
249	0xbaaa8582	-0.0013009759
250	0xba85bc0a	-0.0010203135
251	0x3a417b8c	0.00073807756
252	0xbb5b604a	-0.003347414
253	0xbb1d0086	-0.002395661
254	0xba73b033	-0.000929597
255	0x3b36f88f	0.0027919149

exp_avg_sq f4 [16, 8, 3, 3]
0	0x3a032607	0.000500292
1	0x3a0392f0	0.0005019149
2	0x3a289c45	0.00064319774
3	0x39d5e23a	0.00040795078
4	0x39aaef79	0.00032603348
5	0x39ccd4cd	0.0003906846
6	0x3a08f4fd	0.00052244944
7	0x39d16790	0.00039940747
8	0x39b0df89	0.00033735883
9	0x39b590b7	0.0003463083
10	0x39a4832a	0.00031378242
11	0x39bbdd35	0.00035832232
12	0x39b4fa54	0.00034518784
13	0x39aeedf1	0.00033365146
14	0x39e8fa6a	0.0004443706
15	0x39b22f14	0.00033985882
16	0x39a1b7ea	0.0003084534
17	0x39d75681	0.00041072446
18	0x38a38a46	7.798201e-05
19	0x387c130c	6.009922e-05
20	0x384b2552	4.843373e-05
21	0x392c5291	0.00016433957
22	0x3950aff9	0.0001990198
23	0x3962f5b5	0.00021644573
24	0x3967eb9c	0.00022117648
25	0x395b132f	0.00020892614
26	0x3983fcfb	0.00025174752
27	0x38f5853c	0.00011707327
28	0x39135089	0.00014049014
29	0x39379a7c	0.0001750979
30	0x393ecca7	0.00018196051
31	0x3954ea4e	0.00020305181
32	0x393df89a	0.00018117056
33	0x382eaa74	4.164358e-05
34	0x3846e5ea	4.7421003e-05
35	0x387818bf	5.9150854e-05
36	0x39be7725	0.00036328394
37	0x399a2363	0.00029399534
38	0x3a09bb26	0.00052540225
39	0x399fc31a	0.00030472205
40	0x39ea6f57	0.00044714913
41	0x3a08b1f8	0.00052145077
42	0x39aa9e5d	0.00032542917
43	0x39baa456	0.00035599124
44	0x39d18039	0.0003995912
45	0x3a0b5029	0.0005314374
46	0x3a06f3e7	0.00051480386
47	0x39a90046	0.00032234396
48	0x3a0efcb9	0.0005454529
49	0x39c5d877	0.00037736047
50	0x39bd5eac	0.00036119425
51	0x39dddc5e	0.0004231659
52	0x39a9bc33	0.0003237441
53	0x39c8f63a	0.00038330426
54	0x388535bd	6.351944e-05
55	0x38c3772b	9.320521e-05
56	0x38f5ec6c	0.000117265474
57	0x38a42cb5	7.828457e-05
58	0x38e10d15	0.00010731273
59	0x39043569	0.00012608398
60	0x3825586f	3.9421426e-05
61	0x3870e207	5.7430963e-05
62	0x3877cbdc	5.9079248e-05
63	0x38d3fce7	0.00010108371
64	0x392b3310	0.00016326853
65	0x392289e9	0.000155009
66	0x3922a3d1	0.0001551055
67	0x38e5411b	0.00010931698
68	0x387ad605	5.9803966e-05
69	0x38547024	5.0649178e-05
70	0x382fa973	4.1881063e-05
71	0x38721d09	5.7724337e-05
72	0x3a9716da	0.0011527196
73	0x3a868dc3	0.0010265637
74	0x3a7a5d2e	0.0009550628
75	0x3a965251	0.0011468624
76	0x3a902889	0.0010998409
77	0x3a8c410d	0.0010700539
78	0x3a97d694	0.0011584335
79	0x3a6cae79	0.0009028684
80	0x3a4c0045	0.00077820226
81	0x3a92240c	0.0011149659
82	0x3a584590	0.0008250112
83	0x3a55955a	0.00081475603
84	0x3a3d7145	0.00072266563
85	0x3a34d307	0.00068979006
86	0x3a32d086	0.00068212335
87	0x3a351770	0.00069080945
88	0x3a290b4b	0.0006448521
89	0x3a2e6d73	0.00066538824
90	0x39ccbe4b	0.0003905169
91	0x398a9bb4	0.0002643742
92	0x3a333898	0.0006836741
93	0x39fdee50	0.00048433477
94	0x398b1f68	0.00026535545
95	0x397192d4	0.00023038249
96	0x39e15441	0.00042978118
97	0x39c1abee	0.00036939926
98	0x39b8ddea	0.00035260554
99	0x39ab6544	0.0003269111
100	0x39b4843f	0.00034430806
101	0x3942373f	0.00018521863
102	0x39df3bd3	0.00042578447
103	0x39d117c1	0.00039881284
104	0x3981de60	0.0002477048
105	0x392e3c67	0.00016616435
106	0x39156e95	0.00014250942
107	0x38cf4058	9.882514e-05
108	0x3a7b3798	0.0009583174
109	0x3a310ce8	0.00067539373
110	0x3a593a84	0.00082866126
111	0x3a5e1aca	0.000847262
112	0x3a2a6917	0.0006500645
113	0x39fe9ba9	0.0004856263
114	0x3a6f1815	0.0009120715
115	0x3a206031	0.0006117849
116	0x3a45afd8	0.00075411564
117	0x3aa144f3	0.0012303874
118	0x3a9580eb	0.0011406218
119	0x3a5e055a	0.00084694254
120	0x3a7a7c2f	0.0009555248
121	0x3a6e70ca	0.00090957864
122	0x3a566235	0.0008178086
123	0x3a87918c	0.0010343059
124	0x3a5e85fa	0.0008488592
125	0x3a597e85	0.0008296746
126	0x3976cd6c	0.00023536914
127	0x39b44d55	0.00034389892
128	0x396bf937	0.00022504186
129	0x397d2956	0.00024143359
130	0x39b0e912	0.00033742987
131	0x3984f76f	0.00025361354
132	0x39026539	0.00012435474
133	0x395bdb23	0.00020967102
134	0x3940f07b	0.00018400133
135	0x39b7210c	0.00034929102
136	0x3943785c	0.00018641487
137	0x39194f2c	0.00014620711
138	0x39d8a4b5	0.00041321447
139	0x39752edb	0.00023382476
140	0x39741cf4	0.00023280439
141	0x397161e0	0.00023020012
142	0x38d19895	9.994317e-05
143	0x39f1f93f	0.00046152805
144	0x398315a2	0.00025002385
145	0x39dc0959	0.00041968634
146	0x39ec91ff	0.00045122203
147	0x39bbd26e	0.00035824202
148	0x39d1dac9	0.00040026594
149	0x39c06703	0.00036697843
150	0x3a1c194e	0.00059546984
151	0x39febb1d	0.00048586066
152	0x39a24384	0.0003094935
153	0x39a61c55	0.00031683096
154	0x39cdb27d	0.0003923363
155	0x39979319	0.0002891056
156	0x397d3236	0.00024146665
157	0x39ae8b8c	0.00033291837
158	0x39a5b5cf	0.0003160671
159	0x398094cb	0.00024524922
160	0x39881076	0.00025952206
161	0x399cf20e	0.00029934983
162	0x39065165	0.00012809558
163	0x38906bd9	6.886543e-05
164	0x385f4a31	5.323644e-05
165	0x38d095bb	9.946102e-05
166	0x391dd797	0.00015053
167	0x38eb2d0b	0.00011214063
168	0x3904a00a	0.0001264812
169	0x395570ff	0.00020355357
170	0x38ee2c83	0.00011357015
171	0x37d89e13	2.5822816e-05
172	0x38667dfe	5.4953613e-05
173	0x38e3d935	0.000108646615
174	0x386c5b3b	5.635175e-05
175	0x38b481af	8.607224e-05
176	0x38b442f0	8.595537e-05
177	0x38e28b0a	0.00010802418
178	0x38f111e1	0.00011495106
179	0x38c9acba	9.6166e-05
180	0x39a47bb5	0.00031372686
181	0x39b6a848	0.00034839124
182	0x39b8c410	0.00035241293
183	0x39a8d1ca	0.00032199762
184	0x3984ebe0	0.00025352743
185	0x39529aaf	0.00020084785
186	0x39ac838b	0.00032904404
187	0x399a504b	0.00029432992
188	0x390b16ad	0.0001326452
189	0x3946d957	0.00018963717
190	0x39b01a0e	0.00033588748
191	0x3a03e24e	0.00050309754
192	0x3924609f	0.00015676253
193	0x399152f8	0.00027718372
194	0x39ddbc54	0.0004229272
195	0x39250508	0.000157375
196	0x39aff139	0.00033558326
197	0x39adee1e	0.00033174542
198	0x379466a2	1.7690767e-05
199	0x3802c49a	3.1177515e-05
200	0x38fb3b47	0.00011979654
201	0x3809cee4	3.2856027e-05
202	0x38686f24	5.5416618e-05
203	0x38cd5ade	9.792087e-05
204	0x38d608fa	0.00010205987
205	0x38b56e0e	8.651252e-05
206	0x38dd90e9	0.00010565093
207	0x3899c66b	7.332567e-05
208	0x38f4e6e4	0.000116778334
209	0x38945159	7.072342e-05
210	0x38e64768	0.00010980555
211	0x38c25398	9.2662114e-05
212	0x383c5b00	4.4907443e-05
213	0x390d61cd	0.00013483241
214	0x3834821f	4.303653e-05
215	0x3820fe37	3.838373e-05
216	0x3a03df01	0.00050304836
217	0x3a189b99	0.00058215257
218	0x3a20356e	0.0006111477
219	0x3a136966	0.00056233106
220	0x39cbd262	0.00038875925
221	0x39dd28e8	0.00042182882
222	0x39b5c5d4	0.00034670404
223	0x3a272e7e	0.00063774723
224	0x3a87d30e	0.0010362582
225	0x39a1d513	0.00030867066
226	0x39b81279	0.00035108978
227	0x39e65bcf	0.0004393742
228	0x39a8b502	0.00032178318
229	0x39d6b958	0.00040955353
230	0x3a0cc5b7	0.0005370038
231	0x39aaf936	0.00032610603
232	0x39c7294d	0.0003798701
233	0x3a1588b8	0.00057042716
234	0x3932b7b9	0.00017043845
235	0x393cc2da	0.00018001665
236	0x393f8654	0.0001826522
237	0x3940326c	0.0001832933
238	0x392d5084	0.0001652856
239	0x39524331	0.00020052191
240	0x3925c9ab	0.00015810753
241	0x3902cb3d	0.00012473478
242	0x38a6bdb1	7.9508296e-05
243	0x38c52340	9.400258e-05
244	0x39254223	0.00015760264
245	0x3937204e	0.00017464274
246	0x38154f54	3.559825e-05
247	0x3820a662	3.830193e-05
248	0x38bda9c0	9.043841e-05
249	0x3817fba2	3.6235557e-05
250	0x383d3790	4.5112858e-05
251	0x38e62628	0.00010974362
252	0x39c672a9	0.0003785093
253	0x39c045b9	0.0003667304
254	0x39ad1912	0.0003301581
255	0x39d76ead	0.00041090455

exp_avg f4 [16]
0	0xb1608af4	-3.2675276e-09
1	0x2e51a700	4.7669424e-11
2	0x303ca3b9	6.8626665e-10
3	0x30b586a9	1.3207756e-09
4	0xb07eafde	-9.2654584e-10
5	0x308ec284	1.0387144e-09
6	0x30714084	8.776697e-10
7	0xb0958c66	-1.088108e-09
8	0xb1539204	-3.0787541e-09
9	0x30e59f3e	1.6707202e-09
10	0x312b0b30	2.4890134e-09
11	0xb1458f1b	-2.874862e-09
12	0xb08dfb20	-1.0330474e-09
13	0x2f91dc1a	2.6531738e-10
14	0x31488ff6	2.9185663e-09
15	0x30f44a7a	1.7774504e-09

exp_avg_sq f4 [16]
0	0x245da272	4.8059333e-17
1	0x252cee8e	1.4999447e-16
2	0x2433239d	3.8844603e-17
3	0x24496865	4.3673353e-17
4	0x24ad43c6	7.51416e-17
5	0x24e2093e	9.802753e-17
6	0x2495bcd3	6.493833e-17
7	0x24854050	5.7788505e-17
8	0x2501966b	1.123993e-16
9	0x24f9df4f	1.08364836e-16
10	0x24a35046	7.082597e-17
11	0x25079bbc	1.1762148e-16
12	0x252111bc	1.3970533e-16
13	0x2535a8be	1.575642e-16
14	0x248fcae1	6.2360055e-17
15	0x24357fc1	3.935633e-17
